decoder_weights.pth (torch, 165283 bytes, 13 tensors)

decoder.0.weight f4 [64, 3, 3, 3]
0	0xbd487d58	-0.048947662
1	0xbd867a42	-0.065662876
2	0x3dcad151	0.09903205
3	0x3cc6ffa7	0.024291826
4	0x3e084c26	0.13310298
5	0xbd6a059a	-0.05713425
6	0x3e2edf68	0.1707741
7	0xbe37c3b6	-0.17945752
8	0xbe2fd525	-0.17171152
9	0xbd8e7b8d	-0.06957159
10	0x3d4c1774	0.049827054
11	0xbe0f18d2	-0.13974312
12	0x3ccfb714	0.025355853
13	0x3de3ab2f	0.11116635
14	0x3dbab3bd	0.091163136
15	0xbdf816c6	-0.12113719
16	0x3d44094e	0.047860436
17	0x3e272881	0.16324045
18	0xbc791b0a	-0.0152042005
19	0x3dfa3f57	0.12219112
20	0x3dff80a2	0.12475707
21	0x3c6ae9f4	0.014338005
22	0x3e0841aa	0.13306299
23	0xbe004565	-0.12526472
24	0x3e220cff	0.1582527
25	0xbe55337b	-0.2082042
26	0xbda20c6f	-0.07912528
27	0xbe526544	-0.20546442
28	0xbb3ffecc	-0.0029296158
29	0x3b971636	0.004610802
30	0xbc21ee62	-0.009883495
31	0x3e137085	0.14398392
32	0xbd49ebf6	-0.049297296
33	0x3e0cb901	0.13742448
34	0x3ae7f974	0.0017698244
35	0xbdbcf1b1	-0.092257865
36	0xbdc36a1f	-0.09541725
37	0xbe04e574	-0.12978154
38	0xbd1c97d7	-0.038230743
39	0x3e201909	0.1563455
40	0xbc92957d	-0.017893547
41	0xbd8d42a7	-0.068974786
42	0x3da27ba5	0.079337396
43	0xbe155cad	-0.14586134
44	0xbd42bed5	-0.047545273
45	0xbe053a4f	-0.13010524
46	0xbe1cadd5	-0.15300687
47	0xbcdb442f	-0.02676591
48	0xbd195514	-0.037434652
49	0x3da6dcc3	0.08147576
50	0x3d992ef9	0.074796624
51	0x3d9eb4fb	0.07749363
52	0x3e25f5e6	0.16207084
53	0xbdd3d25e	-0.10342859
54	0xbde5a753	-0.11213555
55	0xbde9a229	-0.11407883
56	0xbdf3b443	-0.118996166
57	0x3e06d18c	0.13165873
58	0x3defd70a	0.11710937
59	0x3d916671	0.07099617
60	0x3b22e92d	0.0024858222
61	0x3d89496c	0.06703457
62	0xbd14b8bf	-0.036309
63	0x3d832952	0.064043656
64	0xbe1e2262	-0.15442804
65	0x3e3c5fae	0.18395874
66	0x3d373c9c	0.044735536
67	0xbbdb3499	-0.0066896197
68	0xbda9f929	-0.08299477
69	0xbe22f420	-0.15913439
70	0x3d8d059e	0.06885837
71	0x3dc96d23	0.09835269
72	0x3d0edb6f	0.034877237
73	0x3e0e3d1d	0.138905
74	0xbdbddf11	-0.09271062
75	0x3e395b63	0.18101268
76	0xbe1330ca	-0.1437408
77	0x3d9f6e4a	0.07784708
78	0xbdccbef8	-0.09997362
79	0x3e421f51	0.18957259
80	0x3d5196b5	0.051169116
81	0x3d8fab21	0.07015062
82	0x3ddb9494	0.107216984
83	0xbd055651	-0.03255302
84	0x3dd7573a	0.10514684
85	0x3e0d25c5	0.13783939
86	0xbdd67f28	-0.10473472
87	0xbd07bf51	-0.033141438
88	0xbe1c27a6	-0.152495
89	0x3e1e5871	0.15463425
90	0xbd65c08e	-0.056091838
91	0xbe3a7b4a	-0.18211094
92	0x3d3d9f69	0.046294603
93	0xbe051f5d	-0.13000245
94	0xbcbc5933	-0.022991752
95	0xbd6300ae	-0.05542057
96	0xbc3dc902	-0.0115835685
97	0xbe39f2ce	-0.18159029
98	0x3da2d863	0.07951429
99	0x3e3a378f	0.18185256
100	0xbe4dfc56	-0.2011579
101	0x3e160416	0.14649996
102	0x3e3e5501	0.18587114
103	0x3df5a1f1	0.119937785
104	0x3d7573bd	0.05992483
105	0x3de056c5	0.1095405
106	0xbe32fc3b	-0.17479031
107	0xbcc03951	-0.02346483
108	0x3e4b1082	0.19830516
109	0x3e229ca6	0.15880069
110	0x3cdb83f0	0.026796311
111	0x3d0a371d	0.033743966
112	0xbdf04e4d	-0.11733685
113	0xbd90f97a	-0.07078834
114	0xbe1ef3f2	-0.15522745
115	0xbe3a157c	-0.18172258
116	0xb8cae649	-9.6750045e-05
117	0x3d3b4f98	0.045730203
118	0x3ddd58bc	0.1080794
119	0x3e024868	0.12722933
120	0xbe0385e8	-0.1284405
121	0x3e4d5011	0.20050074
122	0xbd0fbf0a	-0.0350943
123	0x3df89d88	0.12139422
124	0x3e0abfc7	0.1354972
125	0xbddb47ec	-0.107070774
126	0x3d6855ac	0.056722328
127	0x3e3fe0c3	0.18738084
128	0x3c0031f6	0.007824412
129	0xbd3c5032	-0.045974918
130	0x3d1b6cfe	0.03794574
131	0x3e133829	0.14376892
132	0xbca71107	-0.020393861
133	0x3ac0944d	0.0014692635
134	0x3dd6feb1	0.10497797
135	0x3dea4c6a	0.11440356
136	0x3d667762	0.056266196
137	0x3d64bb6d	0.055842806
138	0x3c5b3077	0.013378254
139	0x3e023b61	0.12717964
140	0xbd37a9f9	-0.044839833
141	0xbdf4c418	-0.119514644
142	0x3e17054b	0.14748113
143	0x3e26031d	0.16212125
144	0xbd7f9345	-0.062396307
145	0x3e0e485d	0.13894792
146	0x3dc0f111	0.0942098
147	0xbe27698e	-0.1634886
148	0xbc25c055	-0.010116656
149	0xbddc930d	-0.10770235
150	0xbe2b6e75	-0.16741355
151	0xbdb95083	-0.090485595
152	0x3e156018	0.14587438
153	0x3dc0718d	0.09396658
154	0xbe3a2dd1	-0.1818154
155	0x3d96ae0c	0.073574156
156	0xbdb6060b	-0.08887871
157	0x3e0df673	0.13863544
158	0xbe128f65	-0.14312513
159	0xbe432932	-0.19058684
160	0xbd6cf327	-0.057849076
161	0xbd49f4e4	-0.04930581
162	0x3e2b1943	0.16708855
163	0xbe2def02	-0.16985705
164	0x3e187c22	0.14891103
165	0xbd89cf6a	-0.06729014
166	0xbcb1d354	-0.021707214
167	0xbd76257f	-0.060094353
168	0xbe46874d	-0.1938755
169	0xbdca8620	-0.098888636
170	0x3cb981d8	0.022644922
171	0xbc4d6abb	-0.012537654
172	0x3d9db0a1	0.07699705
173	0xbcca2d0a	-0.02467968
174	0xbe04ca47	-0.12967788
175	0x3dafad57	0.08577984
176	0xbcf0566c	-0.029338084
177	0xbc9b6267	-0.01896782
178	0x3e19072c	0.14944142
179	0xbe2b2e6f	-0.16716932
180	0x3e0ba646	0.13637647
181	0x3d0d67c9	0.034522805
182	0xbe0bd17b	-0.13654129
183	0xbcd9a7e5	-0.026569316
184	0xbdbe0991	-0.092791684
185	0x3ce0cdf2	0.027441952
186	0xbccb4f3f	-0.02481806
187	0xbe01ee50	-0.12688565
188	0xbde832ad	-0.11337791
189	0x3d1f7e39	0.038938735
190	0x3d941859	0.072312064
191	0x3e058ae5	0.13041265
192	0xbdba6c80	-0.09102726
193	0x3e0fd685	0.14046676
194	0x3cb049a8	0.021519497
195	0xbe31fca6	-0.17381534
196	0x3dafa9f8	0.08577341
197	0x3c89f0b0	0.016838402
198	0x3d9cb854	0.07652345
199	0x3d13cb1c	0.036082372
200	0x3db7f1c8	0.08981663
201	0xbe0fb1ca	-0.14032665
202	0x3d9f9a21	0.0779307
203	0xbd3f249f	-0.046665784
204	0x3e2fd9aa	0.17172876
205	0x3b3615e5	0.0027784046
206	0xbe46597b	-0.19370072
207	0xbcfabc3c	-0.030607335
208	0x3df23f7f	0.11828517
209	0x3e3ee9fb	0.18643944
210	0xbdec901a	-0.11550923
211	0xbd5849b4	-0.052804664
212	0xbd1e5cf7	-0.038662877
213	0x3de337d7	0.11094635
214	0xbbae7078	-0.005323466
215	0x3dbf4e00	0.09341049
216	0xbe07ac67	-0.1324936
217	0xbd97c4bd	-0.07410572
218	0x3dcfd6ae	0.10148369
219	0xbdd5924d	-0.10428295
220	0xbcf3dfe7	-0.02976985
221	0x3da61c05	0.08110813
222	0xb7ae9936	-2.081376e-05
223	0xbe33264b	-0.17495076
224	0xbdb0d42c	-0.086342186
225	0x3e0e5d80	0.13902855
226	0x3e124df5	0.14287551
227	0xbe26b3f4	-0.16279584
228	0xbd966e77	-0.07345288
229	0x3beba2c7	0.0071910354
230	0x3d9200ad	0.07129035
231	0x3e2628a4	0.1622644
232	0xbd66748f	-0.056263503
233	0x3dd20548	0.102549136
234	0x3e2919dc	0.16513771
235	0xbdb23faa	-0.08703549
236	0xbdda5245	-0.10660223
237	0x3e186d38	0.14885414
238	0xbd97c0bb	-0.07409807
239	0xbc9358a5	-0.017986605
240	0xbe24da35	-0.16098864
241	0x3e35b7e3	0.17745928
242	0xbe20f83f	-0.15719698
243	0xbbb807ff	-0.0056161876
244	0xbd7e3185	-0.062058944
245	0xbdf3f1d7	-0.11911362
246	0xbe0a2dc3	-0.13494019
247	0xbe3ccc9b	-0.18437426
248	0xbe02a6e6	-0.12758979
249	0xbdd2229c	-0.102605075
250	0x3d194d74	0.03742738
251	0xbd922502	-0.07135965
252	0xbd66827f	-0.056276795
253	0xbd8a6b1a	-0.06758709
254	0xbdd261d0	-0.102725625
255	0x3e1dfd95	0.15428765

decoder.0.bias f4 [64]
0	0xbe1eabc1	-0.15495206
1	0x3e2ff133	0.17181854
2	0xbe3734cd	-0.17891236
3	0xbe193683	-0.14962201
4	0x3d276fe4	0.04087819
5	0x3dc2e9b1	0.09517229
6	0x3e41c62f	0.18923257
7	0xbc827c37	-0.01592837
8	0xbcd3af57	-0.025840444
9	0xbd3c2b0c	-0.04593949
10	0xbdd0ce77	-0.1019563
11	0xbe17d9f4	-0.14829236
12	0x3de37dc8	0.11107975
13	0xbd250f2f	-0.040297683
14	0xbbc44dde	-0.005990728
15	0x3d608f28	0.054824024
16	0x3d39cc4c	0.04536085
17	0xbe2e9a57	-0.17051063
18	0x3e40ab7c	0.18815416
19	0xbe2e059c	-0.16994327
20	0xbdf27dd0	-0.11840403
21	0x3e30cd54	0.17265826
22	0x3dbcb40e	0.0921403
23	0x3cfee2a2	0.031113926
24	0xbd656d3e	-0.056012385
25	0x3e0e0a4b	0.13871114
26	0x3db91b82	0.0903845
27	0x3cfacdec	0.03061577
28	0x3dae536a	0.08512004
29	0x3df89302	0.121374145
30	0x3e413901	0.18869402
31	0xbdff033e	-0.1245179
32	0x3dc01347	0.09378677
33	0x3e214712	0.15749767
34	0xbcec22e2	-0.028825227
35	0x3e159a85	0.14609726
36	0x3e07ba6d	0.1325471
37	0xbe318f97	-0.17339931
38	0x3e3f34bd	0.18672462
39	0x3e3aa62c	0.18227452
40	0x3dd588d2	0.10426487
41	0xbe2b4563	-0.16725688
42	0xbbf43d89	-0.0074536246
43	0xbdd83832	-0.105575934
44	0xbdd935a9	-0.10605938
45	0xbe03745d	-0.12837358
46	0xbe036820	-0.1283269
47	0xbd1d54a2	-0.03841079
48	0x3e44a98c	0.19205302
49	0xbc88a919	-0.016682195
50	0x3ddf7048	0.10910088
51	0x3e0b04f4	0.13576108
52	0xbdf9e07e	-0.122010216
53	0x3d55b330	0.05217284
54	0xbd895993	-0.06706538
55	0xbe0a6bda	-0.13517705
56	0xbd889eed	-0.06670938
57	0xbcd0529c	-0.025430016
58	0xbd79fac1	-0.061030153
59	0xbb929fe5	-0.0044746273
60	0x3e35ce71	0.17754532
61	0xbe44717d	-0.19183917
62	0xbd30087e	-0.04297685
63	0x3dcc2e0a	0.09969719

decoder.1.weight f4 [64]
0	0x3f7bc787	0.9835133
1	0x3f804e6d	1.0023934
2	0x3f7ef33b	0.9958989
3	0x3f85698a	1.0422833
4	0x3f759e41	0.959446
5	0x3f7dd076	0.9914621
6	0x3f7eca6a	0.9952761
7	0x3f7d059d	0.9883669
8	0x3f7d202e	0.9887723
9	0x3f805519	1.002597
10	0x3f809a03	1.0047001
11	0x3f802fc9	1.0014583
12	0x3f827b5e	1.0193899
13	0x3f7f7bf1	0.99798495
14	0x3f81af04	1.0131536
15	0x3f7f3d1a	0.9970261
16	0x3f8003fb	1.0001215
17	0x3f7f41f6	0.99710023
18	0x3f805bf2	1.002806
19	0x3f7cef17	0.9880232
20	0x3f7ce048	0.98779726
21	0x3f7f4bd1	0.9972506
22	0x3f7c170a	0.98472655
23	0x3f7ee03d	0.9956091
24	0x3f831a63	1.0242428
25	0x3f825915	1.0183436
26	0x3f7dd61a	0.9915482
27	0x3f7edb6f	0.9955358
28	0x3f7a51c5	0.9778102
29	0x3f7cbfb3	0.9873001
30	0x3f8019f4	1.000792
31	0x3f7e4d5c	0.9933679
32	0x3f80d9f0	1.0066509
33	0x3f81f7cc	1.0153747
34	0x3f774a56	0.965978
35	0x3f8019cf	1.0007876
36	0x3f7f2395	0.9966367
37	0x3f7a0b51	0.9767352
38	0x3f8199c5	1.0125052
39	0x3f7bfc32	0.98431695
40	0x3f8223d5	1.0167185
41	0x3f837c42	1.0272295
42	0x3f7feb8e	0.999688
43	0x3f7f161e	0.99643123
44	0x3f825400	1.0181885
45	0x3f821915	1.0163904
46	0x3f7e7307	0.9939427
47	0x3f80353b	1.0016245
48	0x3f7eefe5	0.995848
49	0x3f7f9d7d	0.99849683
50	0x3f81da5f	1.0144767
51	0x3f824235	1.0176455
52	0x3f79187c	0.97302985
53	0x3f7c0b40	0.98454666
54	0x3f7fef34	0.9997437
55	0x3f7bba2e	0.9833096
56	0x3f819927	1.0124863
57	0x3f809b25	1.0047346
58	0x3f7bddc4	0.9838526
59	0x3f7f35ee	0.99691665
60	0x3f80f2aa	1.0074055
61	0x3f7d6fde	0.9899882
62	0x3f7f5586	0.99739873
63	0x3f79def6	0.97605836

decoder.1.bias f4 [64]
0	0xbc16c482	-0.009202125
1	0xbbe1c4c3	-0.006889911
2	0xbc94adcc	-0.018149279
3	0x3c812c15	0.01576809
4	0xbcb47119	-0.022026585
5	0xbc9cecb5	-0.01915584
6	0xbd4df2ea	-0.05028049
7	0xbac05d41	-0.0014676229
8	0xbc307f87	-0.010772592
9	0xbcf33ddb	-0.02969258
10	0xbce8c910	-0.028416187
11	0x3ccfbec9	0.025359528
12	0xba688421	-0.00088697864
13	0xbc859c24	-0.016309805
14	0xbb49a4d7	-0.0030768418
15	0xbcf91d01	-0.030409338
16	0x39fd4f52	0.0004831502
17	0x3c9203b1	0.017824026
18	0xbc213da2	-0.009841355
19	0xbbd97f5f	-0.0066374983
20	0xbba60d2a	-0.0050674872
21	0xbb121d77	-0.0022295394
22	0xbc0ab7d8	-0.008466683
23	0xbbfe5090	-0.0077610686
24	0x3d0309ab	0.031991642
25	0xbc42c434	-0.011887599
26	0xbc759644	-0.014989439
27	0xbc1ee000	-0.00969696
28	0xbc8d811c	-0.017273478
29	0xbc8d8e7c	-0.017279856
30	0xbd174ff7	-0.036941495
31	0xbc7c7138	-0.015407853
32	0x3d33340d	0.04375081
33	0xbc5c88fc	-0.013460394
34	0xbcb87f20	-0.022521555
35	0xbc201190	-0.009769812
36	0xbce4ef6a	-0.027946193
37	0xbd104ea0	-0.035231233
38	0xbc3148a6	-0.010820543
39	0xbc8bdf84	-0.017074354
40	0x3a979318	0.0011564223
41	0x3d5f3f6c	0.054503843
42	0xbc95a50a	-0.018267173
43	0xbc62e75f	-0.0138491085
44	0xbb49eafe	-0.0030810232
45	0x3c87c0d3	0.016571438
46	0xbce698fd	-0.028149122
47	0xbd142b53	-0.03617413
48	0xbc5a0b51	-0.013308362
49	0xbc057712	-0.008146064
50	0x3c8ddfd8	0.017318651
51	0xbc16b4e6	-0.009198403
52	0xbc2b7b46	-0.010466402
53	0xbc6b4351	-0.014359311
54	0x3c2b4176	0.010452619
55	0xbb991fa7	-0.0046729627
56	0xbb9c9c01	-0.0047793393
57	0xbaeb6a13	-0.001796069
58	0xbc966488	-0.018358484
59	0xbd1124b9	-0.035435412
60	0xbc2bd965	-0.010488843
61	0x3c129f95	0.00894918
62	0xbb63a67e	-0.0034736688
63	0xbc1fdab2	-0.009756731

decoder.1.running_mean f4 [64]
0	0xbd9de7cb	-0.077102266
1	0xbbbae950	-0.0057040825
2	0x3a98748b	0.0011631412
3	0xbd67222b	-0.05642907
4	0x3ec788a8	0.38971448
5	0x3d140542	0.036137827
6	0xbdce423a	-0.100712255
7	0x3e69e3a2	0.22840741
8	0xbde4c682	-0.11170675
9	0xbee30d4f	-0.4434609
10	0xbf46525d	-0.77469426
11	0xbea1bcce	-0.3158936
12	0x3d6a951c	0.057271108
13	0xbdf6c664	-0.12049559
14	0xbcaa4898	-0.020786569
15	0xbeeff925	-0.4686977
16	0x3ea2fd46	0.31833857
17	0xbe0df0d4	-0.138614
18	0x3d1d2629	0.03836647
19	0xbd81066c	-0.06300053
20	0xbe489758	-0.19588983
21	0x3de0f5d9	0.10984392
22	0x3f02fb15	0.5116437
23	0xbd80599d	-0.062670924
24	0x3c82661c	0.01591783
25	0x3d6d8ca0	0.05799544
26	0xbedb92a8	-0.42885327
27	0x3f032146	0.51222646
28	0x3ed6e962	0.41974932
29	0x3e078323	0.13233618
30	0xbb7b932e	-0.0038387286
31	0xbe8207c7	-0.2539656
32	0x3e0ad7b5	0.13558848
33	0x3c38a87e	0.01127064
34	0x3ec1ce72	0.37852818
35	0x3e2459da	0.160499
36	0xbe9ab416	-0.3021552
37	0xbd6474da	-0.0557755
38	0xbea75622	-0.32682902
39	0x3e9164fb	0.28397354
40	0x3d625939	0.05526087
41	0xbe10f472	-0.14155748
42	0xbebe8cf2	-0.37216908
43	0xbda7deda	-0.081968024
44	0xbe06e1b2	-0.13172033
45	0xbdbf3478	-0.093361795
46	0xbeef2ed6	-0.4671542
47	0xbe24eb12	-0.16105297
48	0xbc6fc615	-0.014634629
49	0xbe4477b1	-0.19186284
50	0x3dcb072d	0.09913478
51	0x3dc277dd	0.09495518
52	0x3e635bc2	0.22202972
53	0x3e036f83	0.12835507
54	0x3c86663b	0.01640617
55	0x3cfa56b6	0.030558925
56	0xbd8ded3a	-0.06930013
57	0xbd6276dc	-0.055289134
58	0xbd0ea58e	-0.034825854
59	0xbe9bb595	-0.30411974
60	0xbdebc55e	-0.11512254
61	0xbe2a75fd	-0.16646571
62	0xbee1a0bc	-0.44067943
63	0x3f315368	0.6926789

decoder.1.running_var f4 [64]
0	0x3b77019f	0.0037690175
1	0x3caecabb	0.021336904
2	0x3c6dd0ba	0.014515096
3	0x3b22b5fa	0.0024827705
4	0x3d8410bd	0.06448505
5	0x3b50c7a3	0.0031857274
6	0x3d315d9f	0.043302175
7	0x3d018f30	0.031630695
8	0x3b809dff	0.0039250846
9	0x3dd0fbde	0.1020429
10	0x3e7d7695	0.24752267
11	0x3c32c4d6	0.010911187
12	0x3acff418	0.0015865592
13	0x3c174ed9	0.009235107
14	0x3b28e5e5	0.0025771793
15	0x3e28f189	0.16498388
16	0x3d635bcb	0.055507462
17	0x3b61824c	0.0034409938
18	0x3c1c0568	0.009522773
19	0x3c25e08c	0.010124337
20	0x3c05eac3	0.008173647
21	0x3ca93a2d	0.020657623
22	0x3dc59a37	0.09648555
23	0x3b76c147	0.0037651823
24	0x3b134143	0.002246932
25	0x3b806fa4	0.0039195586
26	0x3e18cc9c	0.14921802
27	0x3e163e44	0.1467219
28	0x3dbf27ec	0.09333786
29	0x3c2c26ab	0.010507266
30	0x3cfa6b63	0.030568784
31	0x3c37a3b5	0.011208464
32	0x3aac55db	0.0013148146
33	0x3cba033a	0.022706617
34	0x3e046c7c	0.12932009
35	0x3b168a76	0.0022970713
36	0x3e0a8628	0.13527739
37	0x3be12141	0.0068704193
38	0x3e2651b2	0.16242102
39	0x3c0eb3b3	0.008709836
40	0x3b32bf99	0.0027274846
41	0x3a4e9cb7	0.00078816287
42	0x3d8e8696	0.06959264
43	0x3b1b4c5e	0.0023696641
44	0x3bfb50fb	0.0076695657
45	0x3a59ff53	0.00083159393
46	0x3da950a2	0.082673326
47	0x3bd48b09	0.006486301
48	0x3d01bca7	0.031674054
49	0x3cdccd5b	0.02695339
50	0x3a129c35	0.00055927347
51	0x3b2744f7	0.0025523284
52	0x3d8e6cba	0.06954332
53	0x3c050046	0.008117741
54	0x3b6c62db	0.0036069665
55	0x3ca262eb	0.019822558
56	0x3b21f284	0.00247112
57	0x3b047682	0.0020212238
58	0x3b78d5d1	0.0037969241
59	0x3d8938c5	0.06700281
60	0x3d787118	0.06065473
61	0x3b08db5a	0.0020882697
62	0x3db20bc1	0.08693648
63	0x3e63b058	0.22235239

decoder.3.weight f4 [64, 64, 3, 3]
0	0xbba29610	-0.0049617365
1	0xbbcfb786	-0.0063390164
2	0x3adffe5f	0.0017089358
3	0x3b8a198c	0.004214471
4	0x3ced0903	0.028934961
5	0x3c057abf	0.008146941
6	0x3cd905e8	0.026492074
7	0x3c684ab9	0.0141779715
8	0xbcee4a0a	-0.029088039
9	0x3bd46915	0.0064822533
10	0xbba3078a	-0.004975264
11	0xbc2ba361	-0.010475964
12	0xbcd820b8	-0.026382789
13	0x3c8716aa	0.0164903
14	0x3b70a250	0.003671784
15	0xbcb4b6b5	-0.022059778
16	0x3ac3be65	0.0014934061
17	0x3d144a56	0.036203705
18	0x3d340bb5	0.043956477
19	0x3ad56cdb	0.0016283052
20	0x3cba2f65	0.022727678
21	0xbccd5361	-0.025064172
22	0xbca38d73	-0.01996491
23	0xbc81a823	-0.015827244
24	0x3d0774e0	0.033070445
25	0xbcd0d305	-0.025491247
26	0x3c99d2a8	0.018777207
27	0x3c8ed788	0.017436758
28	0x3c05fc64	0.00817785
29	0xbd487505	-0.048939724
30	0xbd604e46	-0.054762147
31	0xbd643dbd	-0.05572294
32	0xbc2e1aab	-0.010626475
33	0xbd3d84cc	-0.046269223
34	0xbd289761	-0.04115999
35	0xbd7d836e	-0.06189292
36	0x3d27ee73	0.040998887
37	0x3d227c8c	0.03966956
38	0x3ab23b22	0.0013597945
39	0x3c8a44c9	0.016878502
40	0x3d016fdc	0.031600818
41	0xbceb8a90	-0.028752595
42	0xbd1926af	-0.037390407
43	0xbb824b0a	-0.0039762305
44	0xbd1c5e34	-0.038175777
45	0xbcf43c86	-0.029814016
46	0xbc362386	-0.011116868
47	0xbc8db285	-0.017297039
48	0xbc722449	-0.014779159
49	0xbcb02462	-0.021501724
50	0xbbe7a517	-0.007069241
51	0xbc392d02	-0.011302235
52	0xbbc20ee6	-0.005922186
53	0xbd0b4374	-0.033999875
54	0x3ceda07e	0.029007193
55	0xbb158b23	-0.0022818528
56	0xbc90db53	-0.017682707
57	0x3c563b01	0.013075591
58	0x39b89224	0.00035204098
59	0x3d1b1b46	0.037867807
60	0x3c9113d4	0.01770965
61	0x3c6a8b77	0.014315478
62	0x3c87d77f	0.016582249
63	0xbd166cd3	-0.036724877
64	0x3d088145	0.033326406
65	0x3ceda65c	0.02900999
66	0x3cfa820d	0.030579591
67	0xbb8f9dd4	-0.0043828283
68	0xbcda4dd0	-0.026648432
69	0x3c8c69b3	0.017140245
70	0xbca690a6	-0.020332646
71	0x3d1775a8	0.03697744
72	0xbc049a52	-0.008093433
73	0x3c697a4c	0.014250349
74	0x3cbc4fa6	0.022987198
75	0xbca41b32	-0.020032499
76	0xbd23e093	-0.040009093
77	0x3d3cbff0	0.046081483
78	0x3c7025a8	0.014657415
79	0xbc9a0294	-0.018800057
80	0x3b1cbc3d	0.002391591
81	0xbcac88af	-0.02106127
82	0xbc980419	-0.018556641
83	0xbcc9ec75	-0.024648884
84	0xbc8747f2	-0.016513798
85	0x3c4aa7cd	0.012369108
86	0x3bafc2ff	0.0053638215
87	0xbcda57f6	-0.026653271
88	0xbbfc3120	-0.007696286
89	0x3d1d1d24	0.03835787
90	0xbcef1488	-0.029184595
91	0x3d189713	0.03725345
92	0x3d305bab	0.04305617
93	0x3cf0a696	0.02937631
94	0x3c9250dd	0.017860824
95	0xbc6e50cd	-0.014545632
96	0x3caf3471	0.02138731
97	0x3bc553ea	0.006021966
98	0x3d0e18df	0.034691688
99	0xbc41da08	-0.011831768
100	0xbcd9df00	-0.026595592
101	0x3c3df5a4	0.01159421
102	0x3cd9017c	0.026489966
103	0x3b86bd42	0.0041119168
104	0xbcf67666	-0.030085754
105	0xbc7b26b9	-0.015329056
106	0x3cbf96ea	0.023387391
107	0xbcbdb212	-0.0231562
108	0x3c7451b9	0.014912062
109	0xbca7b2a2	-0.020470921
110	0xbd3c2bc5	-0.04594018
111	0x3a858816	0.0010187651
112	0xbcaacbf6	-0.02084921
113	0xbcc14307	-0.023591531
114	0xbcf58c02	-0.029973987
115	0xbb9609c7	-0.0045788023
116	0x3c03c885	0.008043413
117	0x3c1516c8	0.00909967
118	0x3ca610a5	0.020271609
119	0xbc8f7076	-0.01750968
120	0xba8a7cc5	-0.0010565749
121	0x3d2e0168	0.04248181
122	0x3cb93d1d	0.022612149
123	0x3c1c9c86	0.0095588025
124	0x3bc040d5	0.0058671036
125	0xbb6dbff0	-0.0036277734
126	0x3c243613	0.010022658
127	0xbc9f2b5c	-0.019429855
128	0xbcf157b4	-0.029460765
129	0xbd0d7914	-0.034539297
130	0x3b6c411d	0.0036049553
131	0xbc92fe3d	-0.017943496
132	0xbc467173	-0.012112009
133	0xbd056920	-0.03257096
134	0x3b11982c	0.0022215946
135	0x3bda5874	0.0066633765
136	0x3ced439b	0.0289629
137	0xbc986ce5	-0.018606612
138	0x3ce253d7	0.027627869
139	0x3d1bdd8b	0.038053077
140	0x3b88df3f	0.0041770036
141	0xbbb0fe7b	-0.00540143
142	0xbcc59a5b	-0.024121454
143	0xbce7b0a4	-0.028282471
144	0xbc9dc9d8	-0.019261286
145	0x3ba1fa07	0.0049431357
146	0x3bc1864a	0.005905901
147	0xbc1f37fe	-0.009717939
148	0x3d196e3c	0.037458643
149	0x3b9b9a63	0.004748629
150	0x3c9356f5	0.0179858
151	0x3d1ee766	0.038794897
152	0xbc9e3a2f	-0.019314853
153	0x39abaef2	0.00032746006
154	0xbc78c307	-0.015183217
155	0xbcf81ed9	-0.030288147
156	0xbd1f4ab5	-0.038889606
157	0xbd1b3f02	-0.037901886
158	0xbc8ca7ee	-0.017169919
159	0xbcd02656	-0.025408905
160	0x3c0d07fd	0.008607862
161	0x3982184c	0.00024813635
162	0x3d3087a4	0.043098107
163	0x3ba1a48c	0.0049329456
164	0x3b5a03fb	0.0033266533
165	0xbba5b55e	-0.005057021
166	0xbc20e4d3	-0.009820181
167	0xbc131b61	-0.008978696
168	0xbc27f0ec	-0.010250311
169	0x3d217f8d	0.039428283
170	0xbca5832d	-0.020204151
171	0xbbc6fffc	-0.006072996
172	0x3d041888	0.032249957
173	0x3cc325b0	0.023821682
174	0x3d109998	0.03530273
175	0x3b84cad8	0.004052501
176	0x3d5becd8	0.05369267
177	0xb99de3bc	-0.0003011505
178	0x3d364e3c	0.044508204
179	0x3cc8ddf2	0.024519894
180	0xbd17393d	-0.03691982
181	0x3cd8b610	0.026454002
182	0xbc34507b	-0.011005516
183	0x3c6b6fb1	0.014369891
184	0x3d302e44	0.043012872
185	0xbc638a77	-0.013887993
186	0xbbd4e55a	-0.0064970674
187	0xbcc29cc6	-0.023756396
188	0xbc1ffe8d	-0.0097652795
189	0xbbc9b4c8	-0.006155584
190	0xbcefa712	-0.02925447
191	0xbcf09169	-0.029366212
192	0x3cb8bfa2	0.022552315
193	0x3cd16bbd	0.025564069
194	0x3ccf615b	0.025314977
195	0x3d1724a6	0.036900185
196	0x3c57c4e5	0.013169502
197	0xbcd346f2	-0.025790665
198	0x3d037230	0.03209132
199	0xbd011278	-0.031511754
200	0x3d3fa412	0.04678733
201	0x3c3149ea	0.010820845
202	0xbae39127	-0.0017361984
203	0xbcbd11ce	-0.023079779
204	0x3cc5d501	0.02414942
205	0xbc619113	-0.013767499
206	0x3d192f29	0.03739849
207	0x3b3070f6	0.0026922799
208	0xbcb01a1b	-0.021496823
209	0xbc8abb77	-0.016935093
210	0xbc1cd846	-0.009573048
211	0x3cfc9412	0.030832324
212	0xbac4d851	-0.0015018081
213	0xbba795fe	-0.005114316
214	0xbcad10d3	-0.021126186
215	0x3b229d13	0.0024812862
216	0xbd164974	-0.036691144
217	0xbd3e222d	-0.04641931
218	0xbd5c16e1	-0.053732757
219	0x3cdcecbf	0.026968358
220	0x3bae281e	0.005314841
221	0x3c09a5cc	0.008401345
222	0xbceae87d	-0.028675312
223	0x3d03aef4	0.03214927
224	0xbc8f1e15	-0.017470399
225	0x3c99ace2	0.018759195
226	0xbbe0db11	-0.0068620523
227	0x3c737d87	0.014861471
228	0x3b05b126	0.0020399778
229	0xbae23c2f	-0.0017260368
230	0x3c087971	0.008329735
231	0x3d1c69a7	0.038186695
232	0x3c36657c	0.011132594
233	0xbcda3561	-0.026636781
234	0xbcde9e1d	-0.027175004
235	0x3ac223dc	0.0014811712
236	0xbab144b4	-0.0013524503
237	0xbd0163fb	-0.03158949
238	0x3ce78bc9	0.028264897
239	0x3d0855ea	0.03328506
240	0xbcb79f40	-0.022414804
241	0x3cb6a877	0.022297127
242	0xbc6b833b	-0.0143745495
243	0x3d232c10	0.039836943
244	0xbcc5e4bc	-0.02415692
245	0xbbb3e9b6	-0.005490507
246	0x3c23fa33	0.010008383
247	0xbc0c712c	-0.008571904
248	0xbc9ba24a	-0.018998284
249	0x3d06059f	0.032720204
250	0x3cecb7d7	0.028896255
251	0xbce5e0ff	-0.028061388
252	0xbc934da5	-0.01798136
253	0xbc901986	-0.017590296
254	0x3ce2d524	0.027689524
255	0x3cd73137	0.026268585

decoder.3.bias f4 [64]
0	0x3cc11f41	0.023574473
1	0x3b9be1ea	0.0047571557
2	0x3c37d7f4	0.011220921
3	0xbc42fc37	-0.011900953
4	0x3c9f760f	0.019465474
5	0xbc8386bc	-0.016055457
6	0x3cc97c11	0.024595292
7	0x3cb2adc0	0.021811366
8	0x3b266224	0.0025388086
9	0x3c5f4f8d	0.013629806
10	0xbcfeea01	-0.031117441
11	0xbd1a6c80	-0.03770113
12	0x3cd2e5f7	0.025744421
13	0xbb705fc5	-0.0036678177
14	0xbd096742	-0.03354574
15	0x3c96ccb8	0.018408164
16	0xbd1177de	-0.035514705
17	0xbc8d9b01	-0.017285826
18	0x39a93827	0.0003227603
19	0xbccb3c1d	-0.024808938
20	0xbba7ef22	-0.0051249424
21	0x3d0a426e	0.03375476
22	0xbcd0a06b	-0.025467118
23	0xbc410296	-0.011780402
24	0x3b4efe9a	0.003158486
25	0xbca098cd	-0.019604111
26	0x3cf74257	0.030183
27	0x3c087a9b	0.008330013
28	0x3b24a115	0.0025120426
29	0xbca42623	-0.020037716
30	0x3badda7f	0.005305588
31	0x3d18d782	0.0373149
32	0x3d0b650d	0.034031916
33	0x3cfb96db	0.030711582
34	0x3c5f9842	0.013647141
35	0x3b8d1ec0	0.004306644
36	0xbb07c8d0	-0.0020719059
37	0x3c8760c9	0.016525643
38	0xbc87aba5	-0.016561339
39	0xbca75877	-0.020427926
40	0x3d1ad0a8	0.037796646
41	0x3a1230c8	0.0005576727
42	0xbcee5220	-0.029091895
43	0x3d112aeb	0.03544132
44	0xbb55c669	-0.0032619482
45	0xbcd5e380	-0.026109457
46	0xbcf95550	-0.030436188
47	0xbcb11845	-0.021618018
48	0xbbf624a3	-0.0075116917
49	0x3cc94682	0.024569754
50	0x3ce87690	0.028376848
51	0x3d08c89e	0.03339445
52	0x3d128504	0.035771385
53	0xbcb81419	-0.02247052
54	0x3d092731	0.03348464
55	0xbd2abfcc	-0.041686818
56	0x3c6bc1ca	0.014389465
57	0x3c51d22a	0.012806455
58	0xbcadbb7f	-0.02120757
59	0xbd1d8964	-0.038461104
60	0xbb028750	-0.0019917078
61	0x3cf32e94	0.029685296
62	0xbcd4b48a	-0.025964994
63	0x3c0c748a	0.008572707

decoder.4.weight f4 [64]
0	0x3f8410b1	1.0317594
1	0x3f7fedbe	0.9997214
2	0x3f7cf37a	0.98809016
3	0x3f803b08	1.0018015
4	0x3f81f14b	1.0151762
5	0x3f80efd9	1.0073196
6	0x3f812625	1.0089766
7	0x3f82ff51	1.0234166
8	0x3f832fab	1.0248922
9	0x3f808de4	1.0043302
10	0x3f80e828	1.0070848
11	0x3f81165f	1.0084952
12	0x3f7c13db	0.984678
13	0x3f7fec56	0.99969995
14	0x3f84613a	1.0342171
15	0x3f81c78d	1.0139023
16	0x3f8103a0	1.0079231
17	0x3f7eb26d	0.99491006
18	0x3f811147	1.0083398
19	0x3f7dd057	0.99146026
20	0x3f82bb15	1.0213343
21	0x3f7efc2f	0.9960355
22	0x3f7e6b2d	0.9938229
23	0x3f81afe1	1.0131799
24	0x3f806201	1.0029908
25	0x3f8008b0	1.0002651
26	0x3f819951	1.0124913
27	0x3f82b565	1.0211607
28	0x3f7da5fa	0.99081385
29	0x3f83d2eb	1.0298742
30	0x3f8563b9	1.0421058
31	0x3f7d5db9	0.98971134
32	0x3f813358	1.0093794
33	0x3f80f357	1.0074261
34	0x3f7dbdcb	0.99117726
35	0x3f84480e	1.0334489
36	0x3f857c00	1.0428467
37	0x3f821589	1.0162822
38	0x3f80bed2	1.0058234
39	0x3f7d1ba4	0.988703
40	0x3f83e7b4	1.0305085
41	0x3f81719e	1.0112798
42	0x3f811ffe	1.0087888
43	0x3f81cdec	1.0140967
44	0x3f841ac9	1.0320674
45	0x3f80e5f2	1.0070174
46	0x3f7f6a23	0.99771327
47	0x3f7f6502	0.997635
48	0x3f7e21ee	0.9927052
49	0x3f7fe009	0.99951226
50	0x3f8012a9	1.0005695
51	0x3f7ca2b8	0.9868579
52	0x3f7deb57	0.99187225
53	0x3f827957	1.019328
54	0x3f836028	1.026372
55	0x3f807bec	1.0037818
56	0x3f7d2de1	0.9889813
57	0x3f843b5b	1.0330614
58	0x3f7e9d1a	0.9945847
59	0x3f815aa2	1.0105784
60	0x3f7c6842	0.98596585
61	0x3f82154d	1.016275
62	0x3f7eacb7	0.9948229
63	0x3f7d5a46	0.9896587

decoder.4.bias f4 [64]
0	0x3ca2adbf	0.01985824
1	0xbc1cb0cd	-0.009563637
2	0xbc4a2344	-0.01233751
3	0x3afadf15	0.001913997
4	0xbb855952	-0.0040694857
5	0xbb315792	-0.0027060253
6	0xbb7c374c	-0.0038485108
7	0x3c23e509	0.010003337
8	0x3bfa3924	0.007636206
9	0x3c0e80df	0.008697717
10	0x3b7a0f89	0.0038156232
11	0x3c0123bb	0.007882054
12	0xbc9cde7e	-0.019149061
13	0xbbd7af47	-0.006582174
14	0x3c4bbe0d	0.012435448
15	0x3bfcbd41	0.0077129905
16	0xbbb54f56	-0.005533139
17	0xbc1b1c3f	-0.009467184
18	0x3ba18a91	0.0049298485
19	0xbc26b244	-0.010174338
20	0x3bd643e5	0.0065388554
21	0xbca89832	-0.020580385
22	0xbc40976d	-0.011754853
23	0x3b960e0c	0.0045793112
24	0x3b0a8d68	0.0021141414
25	0xbc5af39d	-0.013363746
26	0xbc0f5787	-0.0087488955
27	0x3b24e67c	0.0025161793
28	0xbc436b21	-0.011927397
29	0x3cb43d62	0.022001926
30	0x3c3ca20a	0.0115132425
31	0xbc3d4d03	-0.011554006
32	0x3b8cf6ee	0.0043018973
33	0xbbd9eaa3	-0.0066502853
34	0xbc32365e	-0.01087722
35	0x3b7ded98	0.0038746353
36	0x3cb64c81	0.022253277
37	0xbbaf82e0	-0.0053561777
38	0x3bade679	0.0053070155
39	0xbc306085	-0.0107652
40	0xbb32d58c	-0.0027287928
41	0x3b94ad41	0.004537255
42	0xbc1f0703	-0.009706262
43	0x3ba96d2d	0.0051704855
44	0xb9c3dca3	-0.00037357686
45	0xba88c18a	-0.0010433656
46	0x3adf6a8c	0.0017045303
47	0x3aea3554	0.0017868676
48	0xbc3c6496	-0.011498591
49	0xbba11afc	-0.004916547
50	0xbc13981d	-0.009008435
51	0xbc35ddf5	-0.011100282
52	0xbc32c3b8	-0.010910921
53	0x3c1ea52a	0.009682933
54	0x3c558b68	0.013033725
55	0x3aace576	0.0013190943
56	0xbc46cde7	-0.012134052
57	0x3c7bb19b	0.015362169
58	0xbbdadd6e	-0.0066792285
59	0xbaa02985	-0.0012219405
60	0xbc904b39	-0.017613994
61	0x3bacbdb2	0.005271637
62	0xbc5ba706	-0.013406521
63	0xbc3d0a2e	-0.011538072

decoder.4.running_mean f4 [64]
0	0x3f1e67c8	0.6187711
1	0xbe5c9402	-0.21540835
2	0x3ea8d272	0.32973057
3	0xbe2e92e0	-0.17048216
4	0x3fa12531	1.2589475
5	0xbea57d51	-0.3232217
6	0x3ece57ec	0.40301454
7	0x3edf7597	0.436444
8	0x3f8759b0	1.0574245
9	0xbea9ae3a	-0.33140737
10	0xbc1e3c10	-0.009657875
11	0x3ece2c7b	0.4026831
12	0x3e7a2776	0.24429116
13	0x3e1094e7	0.14119302
14	0xbd628e47	-0.055311467
15	0x3ececdc9	0.40391377
16	0x3ecb4038	0.39697433
17	0x3f1ddbcd	0.61663514
18	0x3bafd768	0.0053662546
19	0xbde38adc	-0.1111047
20	0x3f17ac0e	0.5924691
21	0x3f9304f6	1.1485889
22	0x3f3172b6	0.6931566
23	0x3e59d97c	0.2127437
24	0xbf47b3ce	-0.78008735
25	0x3f67f02e	0.9060086
26	0xbe7dd374	-0.24787694
27	0x3ee8441e	0.4536447
28	0x3f6d2a39	0.9264255
29	0x3f871f33	1.0556396
30	0x3f69dba6	0.9135078
31	0x3e31e4b5	0.17372401
32	0x3c5e1103	0.013553861
33	0x3f653a8c	0.8954246
34	0x3e78b05d	0.24286027
35	0x3f76c7d7	0.9639868
36	0x3effe539	0.4997957
37	0x3f179d8d	0.5922478
38	0xbdf96cc5	-0.12178949
39	0x3e9b6aee	0.30355018
40	0x3f58607b	0.8452222
41	0xbdc89db0	-0.097957015
42	0x3edef5e2	0.4354697
43	0xbdce4689	-0.10072047
44	0x3f459af7	0.7718958
45	0x3f48e71e	0.78477657
46	0x3dd0ef5f	0.102019064
47	0x3f1b2d8c	0.60616374
48	0x3f6fa93c	0.93617606
49	0xbd71ebd1	-0.059062783
50	0x3f3b455e	0.7315272
51	0x3db27f48	0.08715683
52	0x3f32549f	0.6966037
53	0x3e3bd2e4	0.18342167
54	0x3f249d04	0.64302087
55	0xbea6273e	-0.32451814
56	0x3ebfa4bb	0.37430367
57	0x3f4539a5	0.77041084
58	0xbfabf308	-1.3433542
59	0x3f34d8de	0.70643413
60	0xbf33b073	-0.70191115
61	0x3e39029d	0.18067403
62	0x3efdaa83	0.49544153
63	0x3e20335a	0.15644589

decoder.4.running_var f4 [64]
0	0x3e5b2c19	0.2140354
1	0x3e127539	0.1430253
2	0x3ea6013e	0.32422823
3	0x3f06c7cf	0.52648634
4	0x3e1fad2a	0.155934
5	0x3d3dc7cd	0.046333123
6	0x3dee0ed2	0.116239205
7	0x3ee250d0	0.4420228
8	0x3e73a6f7	0.23794161
9	0x3f0f66a9	0.5601602
10	0x3e64e730	0.22353816
11	0x400539b5	2.0816472
12	0x3f43270d	0.7623146
13	0x3dcbe5a8	0.09955913
14	0x3eaa192c	0.3322233
15	0x3e50d1f5	0.20392592
16	0x3d8bb7e8	0.06822187
17	0x3f553054	0.8327687
18	0x3eb4017f	0.3515739
19	0x3f99a93c	1.2004771
20	0x3e9122fa	0.28346997
21	0x3e73941b	0.23786967
22	0x3f44fd83	0.7694933
23	0x3f48db5e	0.7845973
24	0x4029dfb1	2.654278
25	0x3dd5599a	0.10417481
26	0x3d09d9d1	0.03365499
27	0x3e718b2e	0.23588249
28	0x3dd957b0	0.10612428
29	0x3e306e10	0.17229486
30	0x3e7b5964	0.24545819
31	0x3cd31a25	0.025769303
32	0x3fc095e3	1.5045742
33	0x3dd102da	0.10205622
34	0x3dab561a	0.08366032
35	0x3e775e48	0.24157059
36	0x3dfed2c5	0.12442545
37	0x3e78b416	0.24287447
38	0x402472f4	2.5695162
39	0x3d39fc92	0.045406885
40	0x3e942c76	0.2894017
41	0x3e5daf7e	0.21648976
42	0x3e4a1a9a	0.1973671
43	0x3ea09654	0.3136469
44	0x3e393449	0.18086351
45	0x3e9de62a	0.30839664
46	0x3f4fda9f	0.81192964
47	0x40321443	2.7824867
48	0x3e103e72	0.14086321
49	0x3da3bbea	0.07994826
50	0x40239db2	2.5565
51	0x3ef70ce0	0.4825201
52	0x4000d3fd	2.0129387
53	0x3eac34dd	0.3363408
54	0x3e8c3c6b	0.27389845
55	0x403deb40	2.9674835
56	0x3e8b93b2	0.2726112
57	0x3e700426	0.23439083
58	0x40047dd1	2.0701792
59	0x3e90d903	0.28290567
60	0x3f6b9361	0.9202176
61	0x3eb7dded	0.35911503
62	0x3e3053c2	0.17219451
63	0x3e2e9a34	0.17051011

decoder.6.weight f4 [1, 64, 3, 3]
0	0x3bec0bf7	0.0072035748
1	0x3d368d01	0.044568066
2	0x3d5ba805	0.053627033
3	0x3cc9cf32	0.024634931
4	0x3cc4a2ce	0.024003413
5	0x3d030a41	0.0319922
6	0x3c8458c8	0.016155615
7	0x3d556e80	0.052107334
8	0xbc7c2739	-0.015390211
9	0xbd463358	-0.04838881
10	0x3b989538	0.00465646
11	0xbca3f56b	-0.020014485
12	0xbd086030	-0.033294857
13	0x3ccc43fb	0.02493476
14	0x3ce11189	0.027474182
15	0xbcafc831	-0.021457763
16	0xbcbda583	-0.023150211
17	0xbbbb53e4	-0.0057167877
18	0xbd10b498	-0.035328478
19	0x3bfd0df7	0.007722612
20	0xbc957aab	-0.01824697
21	0xb9b53280	-0.00034560636
22	0xbd196765	-0.03745212
23	0x3cfab14a	0.030602116
24	0x3c88f01f	0.016716061
25	0xbc94b94a	-0.018154759
26	0x3b4656f9	0.0030264242
27	0x3d19ae01	0.03751946
28	0xbc094998	-0.0083793625
29	0x3c49750b	0.012295972
30	0x3c3b19be	0.011419712
31	0x3cfa561d	0.03055864
32	0x3bdbe980	0.006711185
33	0x3cb13509	0.021631734
34	0xbc790042	-0.015197815
35	0x3c8a57f9	0.016887652
36	0xbbc9fa69	-0.0061638844
37	0xbb18221c	-0.002321369
38	0x3ca5e7cb	0.020252129
39	0x3ce04a5c	0.027379207
40	0xbc7b2223	-0.015327963
41	0x3c44059f	0.011964231
42	0x3d722ee0	0.059126735
43	0xbc5c5bed	-0.013449651
44	0x3cf06dfe	0.029349323
45	0xbc91bb3a	-0.017789472
46	0x3b6616b4	0.0035108747
47	0xbd0b144b	-0.0339549
48	0x3d619731	0.055075828
49	0x3c8f7b64	0.017514892
50	0x3b9c1a13	0.0047638505
51	0x3916a98e	0.00014368279
52	0x3c6e26af	0.01453559
53	0xbcff9bc1	-0.031202199
54	0xbbe212c7	-0.006899211
55	0xbbac60e3	-0.0052605732
56	0x3c9daf39	0.019248592
57	0xbcf2949b	-0.029611876
58	0x3ca5582d	0.020183647
59	0x3d7156eb	0.058920782
60	0x3d00da9c	0.031458482
61	0xbc90bad5	-0.017667213
62	0x3bd96114	0.006633887
63	0x3c89f954	0.016842522
64	0xbcc6a9b3	-0.02425084
65	0x3d625ef6	0.055266343
66	0x3d427007	0.04747012
67	0x3d551376	0.052020513
68	0x3cbae6e9	0.022815185
69	0xbc4ffe67	-0.012694932
70	0xbbe1f68d	-0.006895846
71	0x3c82cff6	0.015968304
72	0xbc31b001	-0.010845185
73	0xbc659a9b	-0.014013912
74	0x3cc10605	0.02356244
75	0xbc963833	-0.018337345
76	0xbbfdfe50	-0.0077512637
77	0x3d677ab7	0.056513514
78	0x3d3761ee	0.044771127
79	0x3cf6d6ca	0.030131716
80	0x3d0e6d4c	0.034772202
81	0x3d09e477	0.033665147
82	0x3d14cfff	0.036331173
83	0x3cc52e79	0.024070011
84	0x3d19d155	0.03755315
85	0xbc674629	-0.014115849
86	0xbc7e131e	-0.015507488
87	0x3c94cea5	0.018164942
88	0x3d2e0d49	0.04249314
89	0xbab9d71f	-0.0014178491
90	0x3d371072	0.044693418
91	0xbc90d714	-0.017680682
92	0x3b75b64f	0.0037492698
93	0xbb460abd	-0.0030218803
94	0x3cf84e9d	0.030310923
95	0x3c64d846	0.013967579
96	0xbb80ac3d	-0.0039267824
97	0x3c1f4599	0.009721183
98	0x3d588151	0.0528577
99	0x3bf618ef	0.0075102965
100	0x3b82510e	0.0039769476
101	0x3c749879	0.01492893
102	0x3d47148f	0.04860359
103	0xbcf8b8e9	-0.03036161
104	0x3b07aee7	0.0020703615
105	0xbb71faef	-0.003692325
106	0x3d3f8d07	0.046765354
107	0x3d425427	0.047443535
108	0xbc3ceffe	-0.011531828
109	0xb88f0008	-6.818777e-05
110	0x3d28665d	0.041113246
111	0x3d308157	0.043092098
112	0x3c962ecb	0.01833286
113	0x3ca603a1	0.020265402
114	0xbc028812	-0.007967012
115	0xbca8175a	-0.020518947
116	0xbcd26898	-0.02568464
117	0xbd0fff12	-0.035155363
118	0x3c3f0019	0.011657738
119	0xbb6b1d6c	-0.003587569
120	0x3beb760c	0.007185703
121	0xbcfc26b5	-0.030780176
122	0x3b5e9986	0.0033966019
123	0x3b460553	0.0030215576
124	0x3c7c5fb4	0.015403677
125	0x3d2d1f65	0.04226627
126	0xbcaa9071	-0.020820828
127	0x3c689e63	0.014197919
128	0x3d6f41e8	0.058412462
129	0x3c60fc24	0.01373199
130	0x3b3971e3	0.0028296642
131	0xbbc7a69e	-0.0060928604
132	0x3d69883a	0.05701468
133	0x3cd80d5e	0.026373561
134	0x3d681c0d	0.056667376
135	0xbcde4110	-0.027130634
136	0x3d125b24	0.03573145
137	0xbca21523	-0.01978547
138	0x3d022aea	0.031779207
139	0xbcdcf739	-0.026973354
140	0x3d3d3f09	0.046202693
141	0x3d5748f3	0.052559804
142	0x3d4f7edf	0.050658103
143	0x3bdce1f3	0.0067408024
144	0xbc5eddf6	-0.013602724
145	0x3c4dadf7	0.0125536835
146	0xbcd92acd	-0.026509667
147	0x3d1def41	0.03855825
148	0x3d4139bf	0.04717421
149	0x3a294014	0.0006456387
150	0x3cbb8f29	0.022895413
151	0xbc42df5b	-0.011894072
152	0xbc25aaa5	-0.010111486
153	0xbc186d2c	-0.009303372
154	0xbd10a861	-0.03531683
155	0xbcd1bd5a	-0.025602985
156	0xbce13aa0	-0.027493775
157	0xbc91c31e	-0.017793234
158	0x3bb18f3e	0.005418687
159	0xbd2be248	-0.041963845
160	0x3d13420e	0.035951667
161	0xbcbeb557	-0.023279829
162	0x3bd4b98d	0.006491846
163	0x3d01e696	0.031714045
164	0x3cc27832	0.023738954
165	0x3c28afcf	0.010295822
166	0x3d1ff2da	0.03904996
167	0x3c6f7d63	0.014617297
168	0x3d47522f	0.04866236
169	0x3d1999b0	0.037500083
170	0x3c9c4231	0.019074531
171	0xbb84adc4	-0.004049035
172	0x3c870a9f	0.016484557
173	0xbc0610bc	-0.008182701
174	0xbcc4df8c	-0.024032377
175	0xbbe5ba37	-0.007010724
176	0xbcae0cb4	-0.021246292
177	0xbb20b449	-0.002452152
178	0xbc95ed38	-0.018301591
179	0xbc009e18	-0.0078501925
180	0xbb973fbc	-0.004615752
181	0xbc66b434	-0.01408105
182	0x3d0c1fd0	0.034210026
183	0xbc6dddf5	-0.014518251
184	0x3d31b3e0	0.043384433
185	0x3d3ddeee	0.04635518
186	0x3d02844b	0.031864446
187	0x3a90c8a4	0.0011046124
188	0x3cc83a94	0.024441995
189	0x3d50227d	0.05081414
190	0x3ccfdae7	0.025372935
191	0x3be8a3b8	0.007099595
192	0xbceed8f4	-0.029156186
193	0x3d26a9b1	0.040689174
194	0xbc681b06	-0.014166599
195	0x3d43a7bc	0.047767386
196	0xbc83f85a	-0.016109634
197	0xbcc2db6b	-0.023786267
198	0xbaa60440	-0.0012666062
199	0x3c8f6e1b	0.017508557
200	0x3d56f413	0.05247886
201	0x3c8dff16	0.017333549
202	0xbcf0279f	-0.029315768
203	0x3bad6448	0.0052914955
204	0x3c314720	0.01082018
205	0x3c662ccc	0.014048766
206	0xbcd30981	-0.025761368
207	0xbb0015b7	-0.0019544193
208	0xba836cc1	-0.0010026918
209	0x3c78318d	0.015148533
210	0x3d328ac3	0.043589365
211	0x3d5725b9	0.05252621
212	0x3d16ac4e	0.036785416
213	0x3cb62a11	0.022236856
214	0x3c4a3bb7	0.012343339
215	0x3cf6a02f	0.030105678
216	0x3d234c9f	0.039867993
217	0xbcf868c2	-0.03032339
218	0xbc5a0f53	-0.013309318
219	0x3c90021f	0.017579136
220	0x3d01b590	0.031667292
221	0x3ccfd2cb	0.025369069
222	0xbcf42af5	-0.02980564
223	0x3d41494c	0.047189042
224	0x3cf02c36	0.029317956
225	0x3c9f3815	0.019435922
226	0xbb06c876	-0.0020566261
227	0xbbedc2f1	-0.007255905
228	0xbcc43ea4	-0.02395565
229	0x3c9c4dba	0.019080032
230	0xbcebdd92	-0.028792176
231	0x3d3d9a9f	0.046290036
232	0x3c585947	0.013204879
233	0x3ce143f8	0.02749823
234	0x3cd9bab7	0.02657829
235	0xbc8b7fd9	-0.017028736
236	0x3d16f187	0.036851432
237	0xbc0d3995	-0.008619686
238	0x3d5c7adc	0.053828105
239	0xbd016aab	-0.031595867
240	0xbcaebe73	-0.021331048
241	0x3ccea596	0.025225442
242	0xbd1b1839	-0.037864897
243	0xbcf70ac8	-0.030156508
244	0x3cf9ef22	0.030509535
245	0x3d19b429	0.03752533
246	0x3d0cb88f	0.034355696
247	0x3c3c7b3e	0.011503993
248	0x3d563736	0.052298747
249	0xbcc48f08	-0.023993984
250	0xbcae9678	-0.021311983
251	0x3cb16b32	0.02165756
252	0x3bb6a6c4	0.005574079
253	0xbccf0692	-0.025271688
254	0x3b2e6ad8	0.0026613977
255	0x3ca4031e	0.020021018
