encoder_weights.pth (torch, 172195 bytes, 14 tensors)

encoder.0.weight f4 [64, 4, 3, 3]
0	0xbdcb77b6	-0.099349424
1	0x3d826327	0.06366568
2	0x3da15536	0.07877581
3	0x3e07358e	0.13204023
4	0x3df2472d	0.11829982
5	0x3d981063	0.074250005
6	0x3e11f396	0.14253077
7	0xbdbcad47	-0.092127375
8	0x3e1da104	0.15393454
9	0xbe0f9b20	-0.14024019
10	0xbda76f90	-0.08175576
11	0x3d933abc	0.07188937
12	0x3ceb3fd6	0.028716963
13	0xbcdf7a5b	-0.027280023
14	0x3e33c5c8	0.17555916
15	0x3d9bfe67	0.07616883
16	0x3de00239	0.10937924
17	0x3d8b6cac	0.06807837
18	0xbdaa0122	-0.08300997
19	0x3e1db1c1	0.15399839
20	0x3ce7bf05	0.028289327
21	0xbbe79db9	-0.0070683626
22	0x3e0efaae	0.13962814
23	0xbdaba189	-0.0838042
24	0x3d0a6c2c	0.033794567
25	0x3e1c6823	0.152741
26	0xbe26e293	-0.16297369
27	0xbe1c1536	-0.15242466
28	0x3dee5816	0.11637895
29	0x3dabe0b4	0.08392468
30	0xbcd49f22	-0.025954787
31	0xbd7090cb	-0.058731835
32	0x3d41fcc8	0.04736021
33	0x3e05b08a	0.13055626
34	0x3ce89440	0.028391004
35	0x3e1c68f9	0.15274419
36	0x3e15e3db	0.14637701
37	0xbe208ace	-0.1567795
38	0x3db15a81	0.086598404
39	0xbb7ce834	-0.0038590552
40	0x3d2aa148	0.041657716
41	0x3d5d41ed	0.05401795
42	0xb9903eef	-0.0002751271
43	0xbda284f9	-0.07935519
44	0xbca37f69	-0.019958215
45	0xbb2326b3	-0.0024894893
46	0x3e23114c	0.15924567
47	0xbe2ec38e	-0.17066786
48	0xbb4c75da	-0.0031198175
49	0xbd58f7f3	-0.052970838
50	0xbdbfd10a	-0.09366043
51	0xbe133f3f	-0.14379595
52	0x3d03fd65	0.032224078
53	0xbe27595e	-0.16342685
54	0xbe15783a	-0.14596644
55	0x3e0fc126	0.14038524
56	0x3dcb4951	0.09926093
57	0xbddd40a0	-0.10803342
58	0xbcb74e7e	-0.022376295
59	0x3de5dcf1	0.11223782
60	0xbdcdeda3	-0.10055091
61	0xbdb45c16	-0.088066265
62	0xbdd9e9b6	-0.1064028
63	0xbe197aa7	-0.14988194
64	0x3c9dc42e	0.019258585
65	0x3cae9991	0.02131346
66	0xbdd330a0	-0.10312009
67	0xbd38c749	-0.045111928
68	0xbc90b2da	-0.017663408
69	0x3c05c104	0.008163694
70	0x3dd04fc5	0.10171465
71	0x3ba78c9e	0.0051131984
72	0xbd5d0ce0	-0.053967357
73	0x3dfd1269	0.12357027
74	0x3d9d15e0	0.07670188
75	0x3c47fe0f	0.012206568
76	0x3df0edea	0.117641285
77	0x3dfab210	0.12240994
78	0xbde06d08	-0.10958296
79	0xbcbce222	-0.023057047
80	0xbda5b3f1	-0.08090962
81	0x3cd2c092	0.02572659
82	0xbddebe96	-0.10876195
83	0xbe0e2f62	-0.13885263
84	0x3e06cf84	0.13165098
85	0x3d973df2	0.07384862
86	0x3db1c40f	0.08679973
87	0xbd9aa1fb	-0.075504266
88	0x3e011c0e	0.12608358
89	0xbdf1d0ad	-0.1180738
90	0xbc59fcbc	-0.0133048855
91	0x3e247d22	0.1606336
92	0xbe138593	-0.14406423
93	0xbc181be0	-0.00928399
94	0xbd92c8e1	-0.07167221
95	0x3ccabbf0	0.024747819
96	0xbb630572	-0.0034640697
97	0xbdb70b52	-0.08937706
98	0x3d515652	0.051107712
99	0x3e1fbbba	0.15598956
100	0x3dda3a9e	0.106557116
101	0xbe1d3f0b	-0.1535608
102	0x3d085c60	0.03329122
103	0xbd528cf6	-0.051403962
104	0x3e1f358e	0.15547773
105	0x3cd41c41	0.025892379
106	0xbded0ce6	-0.11574726
107	0xbda8b5ed	-0.082378246
108	0xbd35c606	-0.044378303
109	0xbaa1bab8	-0.0012338972
110	0xbdbb87dc	-0.091567725
111	0xbd9c1ba8	-0.076224625
112	0x3e142df7	0.14470659
113	0x3da8d9d2	0.08244671
114	0x3ccd84c8	0.02508773
115	0xbd057801	-0.032585148
116	0x3d21e290	0.039522707
117	0x3e1ad34b	0.15119664
118	0x3d6f226d	0.05838244
119	0x3dc76fcf	0.09738123
120	0x3dff5a86	0.12468438
121	0xbd464819	-0.0484086
122	0xbd10c31f	-0.035342332
123	0x3d39a8ec	0.045327112
124	0x3c88cee1	0.01670021
125	0x3d8bb218	0.06821078
126	0x3e0586f3	0.1303976
127	0x3e08c230	0.13355327
128	0xbcd376eb	-0.02581354
129	0x3e29a4b7	0.1656674
130	0x3d058f6b	0.032607477
131	0xbc9ded64	-0.019278236
132	0xbde1ed28	-0.11031562
133	0x3dad94d5	0.08475653
134	0x3cc9ffdd	0.024658138
135	0x3da3d2c5	0.079991855
136	0xbe298662	-0.16555169
137	0x3e150af2	0.14554957
138	0xbd5e8a98	-0.054331392
139	0x3e0a9368	0.13532794
140	0x3e27a1d2	0.16370323
141	0xbc3d2896	-0.011545321
142	0x3d8fdbd7	0.07024353
143	0x3cd45dd6	0.02592365
144	0x3aff2b37	0.0019467835
145	0x3cc2d0b9	0.023781167
146	0xbd0e1698	-0.034689516
147	0x3c6a8dcc	0.014316034
148	0xbd2f1f73	-0.0427546
149	0xbc442194	-0.011970896
150	0xbdc4f2a0	-0.096165895
151	0xbd36d44a	-0.04463605
152	0xbd490113	-0.04907329
153	0x3e09ce2b	0.13457553
154	0xbdcb38a7	-0.09922915
155	0x3d7ca18d	0.061677504
156	0x3cd83b2a	0.0263954
157	0xbce371f0	-0.02776429
158	0xbc1d8106	-0.009613281
159	0x3dd4378d	0.10362158
160	0x3d3a39b7	0.045465197
161	0x3cf6f07e	0.030143972
162	0xbd2b2ad2	-0.041788884
163	0x3e070b0b	0.13187806
164	0x3e099971	0.1343744
165	0xbc279634	-0.010228682
166	0xbdebf25d	-0.115208365
167	0x3cf95446	0.030435693
168	0x3e089bb7	0.1334065
169	0x3c930d44	0.017950661
170	0x3dd47240	0.10373354
171	0x3e23840b	0.15968339
172	0xbd2d5399	-0.042316053
173	0x3d5302c6	0.051516317
174	0xbd15a203	-0.03653146
175	0x3dcecc95	0.10097615
176	0x3e230782	0.15920833
177	0x3e1886ab	0.14895122
178	0x3ca13417	0.019678159
179	0x3e0b90f2	0.13629511
180	0x3c97ccb8	0.018530235
181	0xbc7be241	-0.015373767
182	0x3e323e4c	0.17406577
183	0x3de6a0ef	0.112611644
184	0xbe055960	-0.13022375
185	0xbdf725f0	-0.12067783
186	0xbcfa6025	-0.030563423
187	0xbdb0ec91	-0.086388715
188	0xbd8415ea	-0.06449492
189	0x3df2dd37	0.118586
190	0xbcead7a5	-0.02866728
191	0xbe001851	-0.12509276
192	0x3d68f22d	0.05687158
193	0x3d1bde49	0.038053785
194	0x3db8f878	0.09031767
195	0x3df4c0db	0.11950847
196	0xbd9fe69c	-0.07807657
197	0x3d848675	0.06470958
198	0x3b3ae31d	0.0028516718
199	0xbe10d374	-0.14143163
200	0xbaf371a7	-0.00185733
201	0xbe1209ac	-0.14261502
202	0x3ddaf304	0.10690883
203	0x3d2d42aa	0.042299904
204	0xbc0755a8	-0.008260168
205	0xbd8e5be8	-0.069511235
206	0x3c0d09db	0.008608307
207	0x3cf9ec30	0.03050813
208	0xbdc01bb5	-0.09380285
209	0x3da08424	0.07837704
210	0xbd7a406a	-0.061096586
211	0xbdd48064	-0.10376051
212	0xbd0d18df	-0.034447547
213	0xbd3146a6	-0.043280266
214	0x3cdd1b4b	0.026990553
215	0xbdd69953	-0.10478463
216	0xbde30f48	-0.11086899
217	0x3e075c19	0.13218726
218	0x3c44e13e	0.012016593
219	0x3d5a1503	0.053242695
220	0xbe158119	-0.14600028
221	0x3d0cd313	0.034380984
222	0x3e0018a2	0.12509397
223	0x3d683077	0.056686845
224	0x3dd2ae15	0.1028711
225	0xbdef4bcc	-0.11684379
226	0x3d378bb1	0.044810954
227	0x3d906422	0.07050349
228	0x3d23d2c1	0.039995912
229	0xbe022d73	-0.1271265
230	0x3c9e29c1	0.01930702
231	0xbde7d847	-0.113205485
232	0x3dec647e	0.11542605
233	0xbdeb6ddb	-0.11495563
234	0x3db098ed	0.08622918
235	0xbc8deb97	-0.017324252
236	0x3d2237a0	0.03960383
237	0xbda38f3c	-0.07986304
238	0xbc2222be	-0.0098959785
239	0x3bb822ef	0.005619399
240	0xbe145b75	-0.14488013
241	0x3e21bbb1	0.15794255
242	0x3e153ba8	0.14573538
243	0xbdf724a0	-0.120675325
244	0x3d46acf9	0.048504803
245	0x3df7bdca	0.12096746
246	0x3cab3af2	0.02090213
247	0xbe085138	-0.13312232
248	0x3bb73c48	0.005591903
249	0x3cfb2c23	0.030660694
250	0xbba9a1b8	-0.005176749
251	0x3d30dd07	0.043179538
252	0xbdffa69e	-0.124829516
253	0x3d916370	0.07099044
254	0x3d44b59b	0.048024755
255	0xbd67709c	-0.056503877

encoder.0.bias f4 [64]
0	0x3d551ecb	0.05203132
1	0xbe31492a	-0.17313066
2	0xbd9c561a	-0.0763361
3	0xbdef1fcc	-0.11675987
4	0xbe102826	-0.14077815
5	0x3b622f1d	0.0034512945
6	0xbe042afb	-0.12907021
7	0xbe0fbcdf	-0.14036892
8	0xbc8ff953	-0.017574942
9	0xbe0a9eee	-0.1353719
10	0xbd552410	-0.052036345
11	0xbe00e2e3	-0.1258655
12	0x3d94ee85	0.072720565
13	0xbc3c645d	-0.011498538
14	0x3dc584bf	0.0964446
15	0xbe044c3e	-0.12919709
16	0x3dd125ef	0.102123134
17	0x3dff6212	0.12469877
18	0xbd7e3aad	-0.062067676
19	0xbd7cb889	-0.061699424
20	0xbe238c7c	-0.1597156
21	0x3c314d86	0.010821706
22	0x3e0da315	0.13831742
23	0xbd0c8cf2	-0.034314103
24	0x3e0315f1	0.12801339
25	0x3e24fe17	0.16112553
26	0x3e280304	0.164074
27	0xbdeb99bd	-0.115039326
28	0x3e299070	0.16559005
29	0xbe19d8ac	-0.1502406
30	0x3da4e0e7	0.08050709
31	0xbdcb44fa	-0.099252656
32	0x3e2dc555	0.16969807
33	0xbe098924	-0.13431221
34	0x3e1e2589	0.15444006
35	0x3e04465a	0.12917462
36	0xbde0f094	-0.10983387
37	0x3df61d56	0.12017314
38	0xbae7ec24	-0.0017694277
39	0x3dfd106b	0.12356647
40	0x3e011b85	0.12608154
41	0x3e14f75b	0.14547484
42	0x3df5999c	0.11992189
43	0xbc243510	-0.010022417
44	0x3d756615	0.059911806
45	0xbc87765e	-0.016535934
46	0xbd5b5f25	-0.053557534
47	0xbd967ff0	-0.07348621
48	0x3d2a638a	0.041598834
49	0x3c92f349	0.017938273
50	0xbc9e3ed2	-0.019317064
51	0xbd87230f	-0.06598484
52	0xbd9e1709	-0.07719237
53	0x3dec2148	0.115297854
54	0xbe01c4e2	-0.12672761
55	0xbdfac272	-0.12244119
56	0x3bf000be	0.007324307
57	0xbce9001f	-0.02844244
58	0xbce89b6e	-0.028394427
59	0xbe0f1be8	-0.13975489
60	0xbd8828d1	-0.0664841
61	0x3e034f14	0.12823135
62	0x3c1a0f69	0.009403088
63	0x3e06046c	0.13087624

encoder.1.weight f4 [64]
0	0x3f7e3fc5	0.99316055
1	0x3f7d8be9	0.9904161
2	0x3f7ff6b8	0.9998584
3	0x3f7f5297	0.997354
4	0x3f82dd92	1.0223868
5	0x3f802611	1.0011617
6	0x3f81de8e	1.0146043
7	0x3f7e5ac8	0.9935727
8	0x3f7c30ee	0.9851216
9	0x3f80a18a	1.0049298
10	0x3f7e4ec4	0.99338937
11	0x3f7e4e34	0.9933808
12	0x3f7da9d0	0.9908724
13	0x3f7ed3c3	0.9954187
14	0x3f81aef4	1.0131516
15	0x3f800b7d	1.0003506
16	0x3f8018e3	1.0007595
17	0x3f7f3025	0.9968284
18	0x3f80d678	1.0065451
19	0x3f805618	1.0026274
20	0x3f8008d7	1.0002698
21	0x3f801fcc	1.0009704
22	0x3f80487c	1.002212
23	0x3f7e9020	0.9943867
24	0x3f7f84b3	0.9981186
25	0x3f7ecdef	0.9953298
26	0x3f804a25	1.0022627
27	0x3f80159a	1.0006592
28	0x3f7ea7a0	0.99474525
29	0x3f7c11ca	0.98464644
30	0x3f80dc5b	1.0067247
31	0x3f80dea6	1.0067947
32	0x3f7edf96	0.99559915
33	0x3f7de6ab	0.99180096
34	0x3f80f9f1	1.0076276
35	0x3f7ec64a	0.99521315
36	0x3f7e648e	0.99372184
37	0x3f819745	1.0124289
38	0x3f8093b4	1.0045075
39	0x3f7d582e	0.98962677
40	0x3f8221b9	1.0166541
41	0x3f7c6850	0.9859667
42	0x3f7d8f28	0.99046564
43	0x3f7e4c6f	0.9933538
44	0x3f80a25f	1.0049552
45	0x3f80f809	1.0075694
46	0x3f7dd1d7	0.99148315
47	0x3f8121b5	1.0088412
48	0x3f7e8f68	0.9943757
49	0x3f809b64	1.0047421
50	0x3f8315a5	1.024098
51	0x3f7ea0e7	0.9946427
52	0x3f7d513a	0.98952067
53	0x3f808167	1.003949
54	0x3f8058a7	1.0027055
55	0x3f7f76de	0.9979075
56	0x3f7e73cd	0.9939545
57	0x3f7d288e	0.98890007
58	0x3f8106c5	1.0080191
59	0x3f826422	1.0186808
60	0x3f805d1d	1.0028416
61	0x3f80685f	1.0031852
62	0x3f7c3ed9	0.985334
63	0x3f813f6d	1.0097481

encoder.1.bias f4 [64]
0	0xbc4ee9e7	-0.012629009
1	0xbb11c692	-0.0022243601
2	0xbc223ac3	-0.009901705
3	0xbb705004	-0.0036668787
4	0x3b8d85fa	0.0043189498
5	0x3c7eae5d	0.015544501
6	0x3b907782	0.0044087777
7	0xbbaaeae6	-0.0052159904
8	0x38287c96	4.017035e-05
9	0x3b962552	0.0045820856
10	0x3be4570a	0.0069683837
11	0xbc2eb3b8	-0.0106629655
12	0xbbe64f31	-0.0070284833
13	0xbc99dbc9	-0.01878156
14	0x3c948315	0.018128911
15	0x3c3e6e9e	0.011623053
16	0xbcb788bd	-0.02240407
17	0x3b1642d8	0.0022928026
18	0xbb5b73ea	-0.0033485838
19	0xbc2524e6	-0.010079598
20	0xbbb372a4	-0.0054763127
21	0xbb88a629	-0.0041701985
22	0x3b306557	0.0026915872
23	0xb9ef9222	-0.0004569451
24	0xbbc8f90f	-0.0061332057
25	0xbb86f772	-0.0041188532
26	0x3bca5163	0.006174253
27	0x3a5d5e86	0.0008444566
28	0xb9572acd	-0.00020519942
29	0x3b955681	0.004557431
30	0xbb2cd12e	-0.0026369798
31	0xbc111d97	-0.008857152
32	0xba961e0c	-0.0011453046
33	0xbc1fe987	-0.009760267
34	0x3baa2cf8	0.005193349
35	0xbbac9eda	-0.00526796
36	0xbb8be257	-0.004268925
37	0x3b977bee	0.004622928
38	0x3b385f51	0.0028132985
39	0xbb858165	-0.004074263
40	0x3bc0e666	0.0058868406
41	0xbbd98f30	-0.0066393837
42	0xbbcb0176	-0.0061952425
43	0xbc3b97f8	-0.011449806
44	0xbacc7989	-0.0015600185
45	0x3c1fbe60	0.009749979
46	0xb9ec3810	-0.00045055198
47	0xbbb9b44a	-0.005667244
48	0x3b23cffb	0.0024995792
49	0x3c048ab1	0.008089707
50	0xbc3f22e5	-0.011666034
51	0xb83c3877	-4.487528e-05
52	0xbb56454b	-0.003269511
53	0x3c14c374	0.009079803
54	0x3bc5387c	0.0060186964
55	0xbc1ba9c4	-0.0095009245
56	0xbc4d730c	-0.012539636
57	0x3b1550bf	0.0022783724
58	0x3b88d882	0.0041762004
59	0x3b3ca73a	0.0028786198
60	0x3b9364c5	0.0044980966
61	0x3ae8fd86	0.0017775751
62	0xbc43df81	-0.011955143
63	0x3b8ec4fd	0.004356979

encoder.1.running_mean f4 [64]
0	0x3f3c1aec	0.7347858
1	0xbf0afe15	-0.5429395
2	0x3c998908	0.0187421
3	0x3f16795f	0.5877895
4	0x3f188e75	0.5959237
5	0xbe98d19d	-0.29847422
6	0xba752791	-0.0009351904
7	0xbe87f86b	-0.26556715
8	0xbe5eec66	-0.21769866
9	0xbf1c1cb8	-0.6098132
10	0xbf1db498	-0.6160369
11	0x3d89d3ca	0.06729849
12	0xbe001e79	-0.12511624
13	0x3ee94f87	0.45568487
14	0xbeb199f6	-0.34687775
15	0x3e8e9614	0.27848876
16	0x3f39c926	0.72572553
17	0x3e973682	0.29533774
18	0x3d07b064	0.033127204
19	0x3e7c09eb	0.24613158
20	0x3e10ec15	0.14152558
21	0x3e89c0a5	0.2690479
22	0xbebcfaee	-0.36910194
23	0xbf246ab1	-0.642253
24	0xbd1b0998	-0.037850946
25	0x3efaf8a1	0.49017814
26	0x3d33cc21	0.043895844
27	0xbeb4dff7	-0.35327122
28	0xbef75ebc	-0.48314464
29	0xbf0125d3	-0.5044834
30	0x3e3c7d25	0.18407114
31	0x3efae82a	0.49005252
32	0x3daf7e54	0.08569017
33	0xb981dfaf	-0.00024771455
34	0x3ee36585	0.4441339
35	0x3e614144	0.21997553
36	0xbeba04e6	-0.36331862
37	0x3efd192e	0.49433273
38	0x3e4ca893	0.19986181
39	0x3e392b7e	0.18082997
40	0x3ebda0b7	0.37036678
41	0x3decc064	0.11560133
42	0x3e1b1eaf	0.15148424
43	0x3de987d4	0.1140286
44	0x3f3a48eb	0.72767514
45	0xbe8ce71d	-0.27520075
46	0x3dccd4e8	0.10001546
47	0x3f1a9183	0.60378283
48	0xbe5589c9	-0.20853342
49	0xbee8ac37	-0.4544389
50	0x3ddca2e3	0.10773256
51	0xbeac14a8	-0.3360951
52	0x3e09edfb	0.13469689
53	0xbde3caed	-0.111226894
54	0xbec5aac1	-0.38606837
55	0xbe9b0b3c	-0.3028201
56	0x3f22fdab	0.63668317
57	0xbe94ca06	-0.29060382
58	0x3ea64b77	0.3247945
59	0x3e2818b2	0.1641567
60	0x3ec1328a	0.3773387
61	0x3d4fae2b	0.05070321
62	0x3db6d75f	0.089277975
63	0x3ed14304	0.4087144

encoder.1.running_var f4 [64]
0	0x3debf04e	0.11520444
1	0x3d12705a	0.035751678
2	0x3b8489a3	0.004044728
3	0x3dbb87c3	0.09156754
4	0x3d186934	0.037209705
5	0x3bb67400	0.0055680275
6	0x3bf85882	0.0075789103
7	0x3de9b4ef	0.114114635
8	0x3bbbc0ad	0.005729756
9	0x3cda0906	0.02661563
10	0x3d30ed84	0.043195263
11	0x3d3c86d9	0.04602704
12	0x3dac97e7	0.084274106
13	0x3d66ee50	0.056379616
14	0x3d8e5c44	0.06951192
15	0x3c4cec0b	0.012507449
16	0x3d43bd2f	0.04778784
17	0x3bf2f075	0.0074139186
18	0x3d235b73	0.039882135
19	0x3cb40ceb	0.021978816
20	0x3d1454b5	0.036213595
21	0x3d34be5f	0.044126865
22	0x3ca50a62	0.020146552
23	0x3d74cac0	0.05976367
24	0x3d0a3f7b	0.033751946
25	0x3d335004	0.04377748
26	0x3bc3af03	0.0059717908
27	0x3c2593d6	0.010106048
28	0x3e89525c	0.26820648
29	0x3db60451	0.08887542
30	0x3d13c96b	0.03608076
31	0x3d1b57a1	0.037925366
32	0x3d836e27	0.06417494
33	0x3bf2fec5	0.007415625
34	0x3cd79227	0.026314808
35	0x3cd72e83	0.026267296
36	0x3dd70575	0.10499088
37	0x3df36e43	0.11886265
38	0x3cc86510	0.024462253
39	0x3bbbc8b2	0.005730712
40	0x3db8152c	0.08988413
41	0x3acbf9da	0.0015562132
42	0x3bd63da6	0.006538111
43	0x3d426b90	0.04746586
44	0x3df25296	0.11832158
45	0x3d0dfa31	0.03466243
46	0x3b9dff02	0.004821659
47	0x3d4bb6cc	0.049734876
48	0x3ca3287a	0.019916762
49	0x3ca13f73	0.019683575
50	0x3c9b4501	0.018953802
51	0x3d00de5c	0.03146206
52	0x3c1af8c5	0.009458725
53	0x3c1bce6e	0.009509666
54	0x3d3435b0	0.043996513
55	0x3bab4d63	0.005227731
56	0x3d601b25	0.054713387
57	0x3c901b11	0.017591031
58	0x3d06f88a	0.03295187
59	0x3d157754	0.036490753
60	0x3c9d5b3f	0.019208549
61	0x3ca27192	0.019829545
62	0x3c8a2013	0.016860997
63	0x3c64bb34	0.013960648

encoder.3.weight f4 [64, 64, 3, 3]
0	0x3d03766b	0.032095354
1	0x3cbe93bd	0.023263806
2	0x3b90eb45	0.0044225776
3	0x3cb9790f	0.022640733
4	0x3c8eb660	0.017420948
5	0x3a9e68dc	0.0012085694
6	0x3ca135d5	0.01967899
7	0xbd3e3861	-0.046440486
8	0xbd22e8c9	-0.039772782
9	0x3c956134	0.018234827
10	0xbcd9994d	-0.026562357
11	0xbc4bd98d	-0.012442005
12	0xbc06257a	-0.008187646
13	0x3d4e767a	0.050405957
14	0x3cb2ff82	0.021850351
15	0xbbb0daeb	-0.005397191
16	0x3c1a04ba	0.009400541
17	0xbcbf8f51	-0.023383768
18	0xbc8f0ea1	-0.01746303
19	0x3cab3d06	0.020903122
20	0xbce4809a	-0.027893353
21	0xbc5b5a3b	-0.013388212
22	0xbcf01f01	-0.029311659
23	0xbd04e570	-0.03244537
24	0xbcadd6cb	-0.021220585
25	0xbc538f57	-0.012912593
26	0xbd14ba8c	-0.036310717
27	0xbce67092	-0.02812985
28	0x3c9e7c09	0.019346254
29	0x3ce4f8f3	0.02795074
30	0x3c824d33	0.015905952
31	0xbc9fd6ac	-0.019511543
32	0x3ba07058	0.004896205
33	0x3c59e735	0.013299753
34	0xbc8f1a08	-0.017468467
35	0xbd48996e	-0.048974447
36	0x3ce2a662	0.027667228
37	0x3cb56e7f	0.022147415
38	0xbd0d9141	-0.034562353
39	0xbc2cd682	-0.0105491895
40	0xbd1bd7bd	-0.03804754
41	0xbd2dd6b4	-0.042441085
42	0x3c73fc53	0.014891702
43	0x3cb277ef	0.021785704
44	0xbc9e5e17	-0.019331975
45	0x3c1e0750	0.009645298
46	0x3c6a6cf4	0.014308203
47	0xbd2bebb7	-0.041972842
48	0xbcd13c7a	-0.025541533
49	0xbb190c09	-0.002335312
50	0x3d0f1726	0.034934185
51	0x3c6c426b	0.014420132
52	0xbcd4f0a0	-0.025993645
53	0x3cd726a5	0.026263544
54	0xbce0d9ed	-0.027447665
55	0x3d082eb5	0.03324767
56	0xbd2036dd	-0.03911482
57	0xbcdd4260	-0.02700919
58	0xbd285d5c	-0.04110466
59	0x3c978aca	0.018498797
60	0x3b1a61b6	0.0023556775
61	0x3cde0acc	0.027104758
62	0xbd2ef725	-0.042716164
63	0x3d1e5169	0.038651858
64	0xbcbd102d	-0.023079002
65	0x3d0742d3	0.033022713
66	0x3d0ea624	0.034826413
67	0x3c4208a7	0.011842883
68	0x3cf809cb	0.030278107
69	0x3c2c33e8	0.010510422
70	0x3d03c675	0.032171685
71	0x3d3046b6	0.043036185
72	0x3c51fb41	0.012816251
73	0x39417e9e	0.00018453083
74	0xbc64c05c	-0.013961878
75	0xbce767c0	-0.028247714
76	0x3d25ae2a	0.0404493
77	0xbae4d403	-0.0017458204
78	0xbc5c92b3	-0.01346271
79	0x3ce1208c	0.02748134
80	0xbb759cc3	-0.003747747
81	0x3ba5f74c	0.0050648805
82	0xbd2b69ae	-0.04184883
83	0x3d0a6810	0.033790648
84	0x3bc2e7b9	0.0059480336
85	0x3d327d58	0.04357657
86	0xbd0ad8d8	-0.033898205
87	0x3cb1da2d	0.02171048
88	0x3d0429b0	0.03226632
89	0xbc4582be	-0.012055097
90	0xbcff51b4	-0.031166889
91	0x3c938bb0	0.018010944
92	0xbd0104cc	-0.031498715
93	0x3cc79182	0.024361376
94	0xbbbf468d	-0.0058372677
95	0xbccfdaaf	-0.025372831
96	0x3c0f59f8	0.008749478
97	0x3bffc604	0.0078055877
98	0x3ce7fdb0	0.02831921
99	0xbd12fb0c	-0.03588395
100	0xbcb03833	-0.021511173
101	0x3cdad547	0.026713027
102	0xbc182717	-0.0092866635
103	0xbb32a47f	-0.0027258692
104	0xbd0e16bf	-0.03468966
105	0xbc5d28d9	-0.013498508
106	0xbcc20040	-0.02368176
107	0xbc438965	-0.011934613
108	0x3d3475d7	0.044057693
109	0x3c82b580	0.015955687
110	0x3cac486c	0.021030627
111	0xbc319b1f	-0.010840206
112	0xbcb8434e	-0.02249303
113	0x3c0d7186	0.008633023
114	0x3c7166d9	0.014733993
115	0x3c9da398	0.019243047
116	0x3bee94c4	0.007280918
117	0x3993de4f	0.00028203658
118	0x3cb49e00	0.022047997
119	0x3cf27661	0.029597463
120	0xbca2bcb4	-0.019865371
121	0x3c04e021	0.008110077
122	0xbb655091	-0.0034990648
123	0x3d061929	0.03273884
124	0xbc2664b9	-0.01015585
125	0xb5555802	-7.947675e-07
126	0x3ae686c8	0.0017587775
127	0xbc749c69	-0.014929869
128	0xbd1b1315	-0.037859995
129	0x3cccac6a	0.024984557
130	0x3d0c29d5	0.03421958
131	0xbcb36ede	-0.021903452
132	0xbcfe0292	-0.031007085
133	0xbcbfb27e	-0.023400541
134	0x3c8542b9	0.016267167
135	0x3718f597	9.117087e-06
136	0x3ce35e31	0.027754875
137	0x3bb6e7b5	0.005581821
138	0x3cc3be17	0.023894353
139	0xbd0a6575	-0.033788163
140	0x3d4b37cb	0.049613755
141	0xbcd1c972	-0.025608752
142	0x3d01059e	0.031499498
143	0xbcfd8acb	-0.03094997
144	0x3ced6daf	0.028982965
145	0xbc06b8a9	-0.008222737
146	0xbbff2bf3	-0.0077872216
147	0xbd1879a5	-0.037225384
148	0x3cd72b35	0.02626572
149	0xbd174b82	-0.036937244
150	0xbd404b9b	-0.046947103
151	0xbce77127	-0.028252197
152	0x3cb1b67d	0.021693463
153	0x3c34ac91	0.011027471
154	0x3bff8acb	0.007798528
155	0x3d01d9a3	0.031701695
156	0x3b81f4ad	0.003965935
157	0xbc873712	-0.016505752
158	0x3cee0256	0.029053848
159	0x3c68f846	0.014219349
160	0x3c2b7231	0.010464237
161	0x3bcdc532	0.006279611
162	0xbd152d50	-0.036420166
163	0xbc45e8a0	-0.012079388
164	0xbcd37411	-0.02581218
165	0x3c600fb4	0.013675619
166	0xbcbd2b9b	-0.023092082
167	0xbc4ac81a	-0.0123768095
168	0xbc1b5ca8	-0.00948254
169	0xbcc01210	-0.023446113
170	0xbd2e84f4	-0.042607263
171	0x3c48ffa0	0.012267977
172	0x3c32db8f	0.010916605
173	0x3cf6f6e9	0.030147033
174	0x3cc39902	0.02387667
175	0xbd033188	-0.03202966
176	0x3c1f42a7	0.009720481
177	0xbcf8bd79	-0.030363785
178	0x3cafc552	0.021456394
179	0xbc87d552	-0.016581211
180	0xbd4839e7	-0.048883345
181	0xbd22ce01	-0.039747242
182	0x3cd817d2	0.026378546
183	0xbd0f5e3d	-0.035001982
184	0xbcdd5964	-0.027020164
185	0xbcc02bb1	-0.023458334
186	0xbcff3a9d	-0.031155879
187	0xbd11f2f1	-0.035632078
188	0x3bffac1d	0.0078025
189	0x3cfcca4c	0.030858181
190	0xbc88b5ed	-0.016688311
191	0xbd05db91	-0.032680098
192	0xbb75a378	-0.0037481468
193	0xbcdaa4cb	-0.026689908
194	0x3c1eef1f	0.009700566
195	0x3c59bbcc	0.013289403
196	0x3c0a0896	0.008424899
197	0xbc0c393a	-0.008558566
198	0x3c2350d3	0.009968
199	0x3d3ab21d	0.04558002
200	0xbc47ced9	-0.012195312
201	0x3cf60056	0.030029457
202	0x3cc42496	0.023943227
203	0xbc764f69	-0.015033581
204	0x3d065a80	0.03280115
205	0xbc86e559	-0.016466783
206	0x3d205d96	0.03915175
207	0xbc46c9a7	-0.012133039
208	0xbbc36e73	-0.0059640943
209	0xbb357fff	-0.00276947
210	0x3cc10d5b	0.023565939
211	0x3cf5d52a	0.030008871
212	0x3b39266c	0.002825166
213	0x3d112620	0.03543675
214	0x3b67fcc8	0.0035398472
215	0xbcc57908	-0.024105564
216	0xbcfed883	-0.0311091
217	0x3b35d542	0.002774552
218	0xbca41955	-0.02003161
219	0xbc95a0c5	-0.018265137
220	0xbc45ac5e	-0.012065021
221	0xbd15ff0e	-0.036620192
222	0x3d120c4c	0.03565626
223	0x3be58763	0.0070046647
224	0x3b64043d	0.0034792565
225	0x3cc4fe64	0.024047084
226	0xbaa56040	-0.0012617186
227	0x3d089a21	0.033350114
228	0xbcc5840d	-0.024110818
229	0x3c986d9f	0.018606959
230	0x3cb2abaa	0.021810371
231	0x3c11cbb7	0.008898667
232	0xbcb25b9b	-0.021772197
233	0xbd314bd1	-0.043285195
234	0x3ce13c41	0.027494552
235	0xbcafe961	-0.021473588
236	0xbc89fd52	-0.016844425
237	0xbd0aadcc	-0.033857152
238	0xbc451f7b	-0.012031431
239	0x3d3a683a	0.045509554
240	0x3ca42672	0.020037863
241	0xbcd0bdf7	-0.025481207
242	0x3d05af04	0.03263761
243	0x3b52bdbd	0.003215655
244	0xbc7112c5	-0.014713948
245	0x3c0abed2	0.008468347
246	0xbcee7820	-0.029110014
247	0xbcf21f87	-0.029556049
248	0xbad3ff22	-0.0016174058
249	0x3c0b30e6	0.008495545
250	0x3d1b245e	0.03787648
251	0x3cb54a62	0.022130195
252	0xbc93934f	-0.018014578
253	0x3d0a4f3e	0.033766977
254	0x3d12eb83	0.035869133
255	0x3bfa4a48	0.0076382495

encoder.3.bias f4 [64]
0	0x3b2c0341	0.0026247057
1	0xbce46edd	-0.027884895
2	0xbd1219d4	-0.035669163
3	0x3c7525ca	0.014962623
4	0x3bcfb848	0.0063391067
5	0x3bc93728	0.0061406083
6	0xbd1aa45c	-0.0377544
7	0xbcc9773b	-0.024592986
8	0xbd2d9aa3	-0.0423838
9	0x395896c9	0.00020655537
10	0x3cbcfdb9	0.023070203
11	0x3be3b6b7	0.0069492715
12	0x3c85b846	0.01632322
13	0x3c632b6c	0.013865333
14	0x3cf9be48	0.030486241
15	0x3ce1b15d	0.027550394
16	0x3c151a37	0.009100488
17	0xbcfb678c	-0.030689023
18	0xbc008f17	-0.007846615
19	0xbc028cf2	-0.007968174
20	0x3c650333	0.013977814
21	0x3d32cd67	0.04365292
22	0x3d189f38	0.037261218
23	0x3d22f0a4	0.039780274
24	0xbd218fbe	-0.039443724
25	0xbb532d89	-0.0032223186
26	0x3c48a690	0.012246743
27	0x3c14b423	0.009076151
28	0xbb97cc6b	-0.004632523
29	0xbc1bcbe4	-0.0095090605
30	0x3c8dcb20	0.017308772
31	0xbcfb0bbe	-0.030645248
32	0x3d3079fa	0.043085076
33	0x3ce9f9eb	0.028561553
34	0xbc8f8660	-0.01752013
35	0x3cdc9ee6	0.026931237
36	0xbb7141f6	-0.0036812997
37	0xbc841067	-0.016121102
38	0x3cc16e00	0.023612022
39	0x3c051ae7	0.00812409
40	0xbd2e4126	-0.0425426
41	0xbc490370	-0.012268886
42	0xba67d56f	-0.0008843755
43	0x3cbd968d	0.023143077
44	0x3c40cd38	0.011767678
45	0x3d0019c1	0.03127456
46	0xbd1f8324	-0.038943425
47	0xbc2817f7	-0.01025962
48	0xbc92a6ab	-0.01790174
49	0xbc5763b0	-0.013146326
50	0x3d2caba1	0.042155866
51	0x3b777b3e	0.0037762667
52	0xbd0fd291	-0.03511292
53	0xbccb0763	-0.024783796
54	0x3d19de99	0.0375658
55	0x3cda5c0d	0.026655221
56	0x3c34e762	0.011041494
57	0xbcddd25e	-0.02707785
58	0xbd0c5ff9	-0.034271214
59	0x3d1f6496	0.038914286
60	0xbce34083	-0.027740723
61	0x3c93132e	0.017953482
62	0xbc8a38ee	-0.01687285
63	0x3c8191ee	0.015816655

encoder.4.weight f4 [64]
0	0x3f7c43cc	0.9854095
1	0x3f7e6c80	0.9938431
2	0x3f7ed159	0.9953819
3	0x3f7e751d	0.9939745
4	0x3f76ef34	0.96458745
5	0x3f7d84b2	0.990306
6	0x3f7c222f	0.9848966
7	0x3f7ccfc5	0.9875453
8	0x3f7d52b9	0.9895435
9	0x3f7d6638	0.989841
10	0x3f7ce5b3	0.98787993
11	0x3f7cb709	0.9871679
12	0x3f7c6db3	0.9860489
13	0x3f7cf17d	0.9880598
14	0x3f8031d7	1.001521
15	0x3f7ccaa1	0.9874669
16	0x3f7cdb39	0.9877201
17	0x3f7d1b3f	0.988697
18	0x3f7d9e44	0.9906962
19	0x3f7df72c	0.9920528
20	0x3f7fc438	0.9990878
21	0x3f7d2e61	0.98898894
22	0x3f806ba5	1.003285
23	0x3f7c018e	0.9843987
24	0x3f7d6ac2	0.98991024
25	0x3f8007d5	1.000239
26	0x3f7d95c8	0.99056673
27	0x3f7e4310	0.9932108
28	0x3f7b88dd	0.9825571
29	0x3f7db8de	0.9911021
30	0x3f7d9a10	0.99063206
31	0x3f800339	1.0000983
32	0x3f7c2e47	0.98508114
33	0x3f7df6b6	0.99204576
34	0x3f7c7d2e	0.9862851
35	0x3f7da31c	0.9907701
36	0x3f7c12f8	0.98466444
37	0x3f7bd93f	0.98378366
38	0x3f7d10a0	0.9885349
39	0x3f7c5b6b	0.9857699
40	0x3f7cb89b	0.98719186
41	0x3f7d0d03	0.9884798
42	0x3f7f96f5	0.9983972
43	0x3f7fb374	0.998832
44	0x3f7e4732	0.99327385
45	0x3f7ef952	0.9959918
46	0x3f7e357f	0.9930038
47	0x3f7be978	0.9840312
48	0x3f7ffa9a	0.9999176
49	0x3f7c85fb	0.9864194
50	0x3f7fa50e	0.9986123
51	0x3f7e9542	0.994465
52	0x3f7f4c58	0.99725866
53	0x3f7c662a	0.9859339
54	0x3f7f4e0b	0.9972846
55	0x3f7c84a0	0.9863987
56	0x3f7ec922	0.99525654
57	0x3f7e2355	0.9927266
58	0x3f7b186d	0.98084146
59	0x3f7cc4f0	0.98738
60	0x3f80211a	1.0010102
61	0x3f801664	1.0006833
62	0x3f7dca96	0.99137247
63	0x3f7dcb91	0.9913874

encoder.4.bias f4 [64]
0	0xbc482d91	-0.012217895
1	0xbb3f876e	-0.002922501
2	0xba71bae9	-0.0009221272
3	0xbbb76c13	-0.0055976002
4	0xbc4ed7d0	-0.012624696
5	0xbbf5a356	-0.007496278
6	0xbc3db51a	-0.0115788225
7	0xbbeb9fb3	-0.0071906685
8	0xbc14b661	-0.009076686
9	0xbc065220	-0.008198291
10	0xbc052ed9	-0.008128845
11	0xbcb83a79	-0.02248882
12	0xbc7634ab	-0.015027205
13	0xbc2038e9	-0.009779193
14	0x3b112369	0.002214635
15	0xbc33dbd4	-0.010977704
16	0xbc1d3e73	-0.009597409
17	0xbc120161	-0.008911462
18	0xbb0a244b	-0.0021078761
19	0xbbe2b486	-0.0069184927
20	0x38adf198	8.294283e-05
21	0xbc1c60ed	-0.009544593
22	0xba3b040a	-0.0007134086
23	0xbc62dd24	-0.013846669
24	0xbc0165fa	-0.007897848
25	0x3ae30f51	0.001732329
26	0xbc0e2d83	-0.008677843
27	0xbb6ce920	-0.0036149696
28	0xbc6ee62f	-0.014581247
29	0xbc09c2a1	-0.00840822
30	0xbc2d25e7	-0.010568119
31	0x3ad7e607	0.0016471752
32	0xbc70ed24	-0.014704976
33	0xbbf7aae6	-0.0075582145
34	0xbc3dafcf	-0.011577561
35	0xbbdba9da	-0.0067035975
36	0xbc6eed70	-0.014582977
37	0xbc651655	-0.013982375
38	0xbc2d4bf6	-0.0105771925
39	0xbc413628	-0.011792697
40	0xbc3efd02	-0.011657001
41	0xbc225417	-0.009907744
42	0xba3695e7	-0.0006965086
43	0x3b68063d	0.003540411
44	0xbb9f8ccf	-0.0048690806
45	0xbb08fd7d	-0.0020903044
46	0xbc333efc	-0.01094031
47	0xbc123a6e	-0.008925064
48	0x3a1dabd1	0.00060146773
49	0xbc5a67c0	-0.0133304
50	0x3b63bf62	0.0034751524
51	0x398baa12	0.00026638858
52	0xbac6484d	-0.0015127748
53	0xbc2e60bc	-0.01064318
54	0x3aab007b	0.0013046408
55	0xbc35c21d	-0.0110936435
56	0xbb9ba59f	-0.004749968
57	0xbacbfa37	-0.0015562241
58	0xbc49d3a8	-0.012318529
59	0xbc503770	-0.01270853
60	0x3b9bb5d9	0.0047519025
61	0x3b7e6050	0.003881473
62	0xbbfbc0d4	-0.007682899
63	0xbc15de9b	-0.009147312

encoder.4.running_mean f4 [64]
0	0xbe6b1bf4	-0.22959882
1	0x3f199580	0.59993744
2	0xc00cd889	-2.2007163
3	0x3e46d903	0.19418721
4	0x3e78d3b4	0.24299508
5	0xbfdc05fa	-1.7189324
6	0xbf31939d	-0.69365865
7	0xbfa7187f	-1.3054351
8	0xbf37d6ae	-0.7181195
9	0x3e074174	0.13208562
10	0x3ad431d6	0.0016189169
11	0x3fa2eee2	1.2729151
12	0xbeba8df2	-0.3643642
13	0x3e88e317	0.26735756
14	0xbe55f46b	-0.2089402
15	0x3f04f815	0.51941043
16	0xbebe1e1d	-0.3713235
17	0xbd9a6e56	-0.07540576
18	0xbf338c16	-0.7013563
19	0x3ea4ec6e	0.32211632
20	0x3f18a3f6	0.59625185
21	0xbebad80e	-0.36492962
22	0x3f985f77	1.1904134
23	0xbe36979d	-0.17831273
24	0xbf3d6b43	-0.73991793
25	0xbfb16c5c	-1.3861194
26	0xbed23e5e	-0.41063207
27	0x3e58c4c4	0.2116881
28	0xbf57dae0	-0.8431835
29	0xbd228ac6	-0.039683126
30	0x3f82c957	1.0217694
31	0xbfd01d05	-1.6258856
32	0xbe32d82a	-0.17465273
33	0x3e79e539	0.24403848
34	0x3c9fdfc4	0.01951588
35	0x3eb500fa	0.35352308
36	0xbe87778a	-0.2645839
37	0x3edbb211	0.4290929
38	0xbeaa2e9b	-0.33238682
39	0x3e6dc24d	0.23218651
40	0x3cb24a2a	0.02176388
41	0x3e1f5f62	0.1556373
42	0x3e30ae57	0.17254005
43	0xbf106e9e	-0.5641879
44	0xbf210813	-0.62902945
45	0xbf335858	-0.70056677
46	0x3f0fdb79	0.56194264
47	0x3eb2ef7b	0.34948334
48	0x3f60e218	0.8784499
49	0x3e3a9380	0.1822033
50	0xbf5ea96c	-0.8697727
51	0xbd8b4047	-0.06799369
52	0xbee8d91c	-0.4547814
53	0xbf73e776	-0.95275056
54	0xbf5275af	-0.8221082
55	0x3ea06415	0.31326357
56	0x3ec3bd49	0.3823035
57	0xbf012e92	-0.50461686
58	0xbed2118e	-0.41029018
59	0xbeea65be	-0.45780748
60	0xbd6af3f2	-0.05736155
61	0x3ec2cd6a	0.38047343
62	0xbec9104c	-0.39270246
63	0xbe0d3772	-0.13790682

encoder.4.running_var f4 [64]
0	0x40173481	2.3625796
1	0x4016e7e3	2.3579032
2	0x40a4ed4b	5.1539664
3	0x40215963	2.5210807
4	0x3f533665	0.82504874
5	0x40e3c925	7.118304
6	0x3fbf0754	1.4924111
7	0x408fa591	4.4889607
8	0x40096e7c	2.1473684
9	0x3f8d73c4	1.1050954
10	0x402e514a	2.7237115
11	0x3fba22bd	1.4541851
12	0x4004a031	2.0722773
13	0x3f4b40c8	0.79395723
14	0x404e041d	3.219001
15	0x4007ef43	2.1239784
16	0x402d7266	2.7101073
17	0x3fcbb81d	1.5915562
18	0x40414fd2	3.0204968
19	0x3fe3a707	1.7785348
20	0x404ea2c3	3.2286842
21	0x3ff842bf	1.9395369
22	0x3f91930d	1.1373001
23	0x3f779976	0.9671854
24	0x4002604f	2.0371282
25	0x40ba7c1e	5.827651
26	0x402bdb4f	2.6852605
27	0x4081a16d	4.0509553
28	0x3f16d4ca	0.5891844
29	0x3f36944d	0.7132004
30	0x40141c33	2.3142211
31	0x40747c1a	3.8200746
32	0x402ef5e8	2.733759
33	0x401afeec	2.4218092
34	0x3eb89d5a	0.3605755
35	0x400490dc	2.0713415
36	0x3ff175bb	1.8864053
37	0x404b47e1	3.1762621
38	0x3faab4db	1.3336443
39	0x3fb56031	1.416998
40	0x3f93bc8c	1.1541915
41	0x3fa61f1f	1.2978247
42	0x3f9c5098	1.2212095
43	0x3f9759f5	1.1824328
44	0x3fb95310	1.4478474
45	0x3f9cb5bf	1.2242965
46	0x3fc98176	1.5742633
47	0x40a45cbd	5.1363206
48	0x400b09b0	2.1724663
49	0x3ff1d9a1	1.889454
50	0x40526728	3.2875462
51	0x404d0c22	3.2038655
52	0x40953bd5	4.6635537
53	0x400969c9	2.1470816
54	0x4021082c	2.5161238
55	0x3f3bf321	0.7341786
56	0x3fd2595c	1.643352
57	0x3fa08505	1.2540594
58	0x3fa50237	1.2891301
59	0x3fe0e951	1.7571203
60	0x3fbcdd81	1.4755098
61	0x400194b5	2.0247014
62	0x4039e7b6	2.9047675
63	0x3f2dc3bd	0.678768

encoder.6.weight f4 [3, 64, 3, 3]
0	0x3c7492fd	0.014927623
1	0x3a1ce445	0.00059849425
2	0xbc87363a	-0.01650535
3	0xbcd75948	-0.02628769
4	0x3d36cdee	0.044629984
5	0xbc215e3c	-0.009849127
6	0xbb76f562	-0.003768288
7	0x3bf0f0aa	0.007352908
8	0xbcf8a381	-0.030351402
9	0x3ca5a815	0.02022175
10	0xbc509c30	-0.0127325505
11	0xbce0c441	-0.027437331
12	0x3cfd0b21	0.030889096
13	0x3ca8a701	0.020587446
14	0x3bc1c0b2	0.0059128636
15	0x3cf4ddf9	0.029891001
16	0xbbf10b77	-0.007356103
17	0x3d328ceb	0.04359142
18	0x3c9479da	0.01812451
19	0x3cf03d7a	0.02932619
20	0x3c460806	0.012086874
21	0xbd03ac32	-0.03214664
22	0xbd0a3e9f	-0.033751126
23	0xbd0aef3b	-0.033919554
24	0x3d30043a	0.04297278
25	0x3ce05d8f	0.027388362
26	0x3c9f89f6	0.019474965
27	0x3d1cd407	0.038288143
28	0xbd10d3bf	-0.035358187
29	0xbd143cb2	-0.036190696
30	0xbb99c9c6	-0.0046932427
31	0x3c834ece	0.016028788
32	0x3d2cc405	0.042179126
33	0x3cae8910	0.02130559
34	0x3a1ed36f	0.0006058728
35	0x3d34b5e3	0.044118773
36	0x3cab4a2d	0.020909393
37	0x3cc8538c	0.0244539
38	0x3d1b6445	0.03793742
39	0xbcf887bd	-0.030338163
40	0xbd0c6097	-0.034271803
41	0xbcbb9c3e	-0.02290165
42	0xbc9447e6	-0.01810069
43	0xbcc149ca	-0.023594756
44	0x3ccedb4f	0.025251059
45	0xbc1a5cb7	-0.009421519
46	0xbce56ef1	-0.028007003
47	0xbb8a98b3	-0.004229629
48	0x3c022410	0.007943168
49	0x3c224fdb	0.009906734
50	0x3d02d3d2	0.03194029
51	0xbd16b66a	-0.036795057
52	0xbc1b8591	-0.009492294
53	0xbc9d8cc9	-0.01923217
54	0xbcb5ca80	-0.022191286
55	0xbd00a01f	-0.031402703
56	0xbb98419e	-0.004646494
57	0xbc9c8af0	-0.01910922
58	0xbc14f691	-0.009091989
59	0x3bab6450	0.005230464
60	0x3d0165da	0.031591274
61	0xbcbf1840	-0.023326993
62	0x3d184470	0.037174642
63	0x3d3697c7	0.04457834
64	0xbd115775	-0.035483796
65	0x3ce3ac61	0.027792158
66	0x3ba41ac3	0.005008073
67	0xbc24952d	-0.010045332
68	0xbc5f6c2a	-0.013636628
69	0xbc0e1f68	-0.00867448
70	0x3cc2c95f	0.023777662
71	0xbcc9c3f5	-0.024629572
72	0x39f9d832	0.0004765406
73	0xbd11c092	-0.03558404
74	0x3d0d6f7c	0.034530148
75	0x3c20b03e	0.009807644
76	0x3ced8dff	0.028998373
77	0xbd164b94	-0.03669317
78	0xbcef8094	-0.029236116
79	0xbc9176e6	-0.01775689
80	0x3d268460	0.040653586
81	0x3c00791f	0.0078413775
82	0xba682b04	-0.00088565075
83	0xbc2cd1c7	-0.010548062
84	0xbcd45c20	-0.025922835
85	0xbc834118	-0.01602225
86	0xbcf9491a	-0.030430365
87	0x3ca90cb7	0.020635946
88	0xbd090644	-0.03345324
89	0x3d20160e	0.039083533
90	0x3d43a28e	0.047762446
91	0xbc9ce8d6	-0.019153994
92	0x3c7f5082	0.015583159
93	0x3c991219	0.018685387
94	0xbbba0b4c	-0.005677616
95	0xbccbbb8f	-0.024869708
96	0xbcdfc55f	-0.027315794
97	0x3ab76bfd	0.0013993975
98	0x3c10a875	0.008829226
99	0x3d3972cb	0.04527549
100	0x3cb5fd49	0.022215502
101	0x3c3c5e11	0.011497037
102	0xbc904424	-0.017610617
103	0x3d009411	0.031391207
104	0x3b1731cb	0.002307045
105	0xba885d39	-0.0010403759
106	0x3b0fbf9a	0.0021934272
107	0xbc930ba0	-0.01794988
108	0x3d2c23f2	0.042026468
109	0xbcfc003f	-0.030761836
110	0xbcd51acb	-0.026013752
111	0x3d003668	0.031301886
112	0xbc447ba5	-0.01199237
113	0xbceedec6	-0.029158961
114	0xbcea72dc	-0.028619222
115	0x3d31eee8	0.04344073
116	0x3ccde89c	0.02513533
117	0xbcf7df41	-0.030257823
118	0x3bdd0b3b	0.0067457235
119	0xbc5f4bef	-0.013628944
120	0x3bd50ee0	0.0065020174
121	0xbc8c2af4	-0.017110325
122	0xbcf85c0a	-0.030317325
123	0x3cc1d216	0.023659747
124	0xbce1ff22	-0.027587477
125	0x3c60a4e0	0.013711184
126	0x3d379081	0.044815544
127	0x3ccf5065	0.02530689
128	0xbb78be59	-0.0037955253
129	0x3c9f12b2	0.019418094
130	0x3d0837fd	0.03325652
131	0x3c7822f1	0.015145049
132	0x3d004ff9	0.031326268
133	0x3c23bd52	0.009993868
134	0x3c07b929	0.008283892
135	0xbc29f4cd	-0.010373306
136	0xbbc52090	-0.0060158446
137	0xbd066503	-0.032811176
138	0x3d156d32	0.03648109
139	0xbd055102	-0.03254796
140	0xbb933d0e	-0.0044933623
141	0xbbd71c1e	-0.006564631
142	0xbba09864	-0.004900979
143	0xbcfd9eb4	-0.030959465
144	0x3cc2a980	0.023762465
145	0xbbf7230c	-0.0075420197
146	0x3cb5ee55	0.022208372
147	0xbd038165	-0.032105822
148	0xba2af7dc	-0.0006521919
149	0xbcb875c1	-0.022517087
150	0xbcb1c710	-0.021701366
151	0x3d0a54ad	0.03377216
152	0xbd13f9fd	-0.03612708
153	0xbc9269b5	-0.01787267
154	0x3bfe07ab	0.007752379
155	0xbcf4d38a	-0.029886026
156	0xbc5665d2	-0.013085799
157	0xbcbd0be4	-0.023076959
158	0x3ca43b24	0.020047732
159	0x3cd6c7a9	0.026218252
160	0xbc343b71	-0.0110005
161	0xbb58a917	-0.003305977
162	0x3b8bc676	0.0042656017
163	0xbcdf3094	-0.027244844
164	0x3c9b9a4f	0.018994479
165	0x3c64ca23	0.013964209
166	0x3c5ee83e	0.013605176
167	0x3c7021e7	0.01465652
168	0x3c93a474	0.018022753
169	0xbc3f39b7	-0.011671475
170	0xbb39e2e7	-0.0028364004
171	0xbcebb16f	-0.02877113
172	0x3b5fef15	0.0034169604
173	0x3c19f472	0.009396659
174	0xbbb456ff	-0.005503535
175	0xbc61288f	-0.01374258
176	0x3cc3e131	0.02391109
177	0xbcf6ac7d	-0.030111546
178	0xbc378637	-0.011201433
179	0xbc80ab0a	-0.015706558
180	0xbbf3af63	-0.007436679
181	0xbbdaa06f	-0.006671957
182	0x3d13535c	0.03596817
183	0x3d1223a3	0.035678517
184	0xbcff9694	-0.031199731
185	0x3cd6250b	0.02614071
186	0x3d049db6	0.032376967
187	0x3d247bdd	0.040157188
188	0xbcd05bea	-0.025434453
189	0x3c20d501	0.009816409
190	0x3c001895	0.007818361
191	0xbcf97f04	-0.030456074
192	0xbc807b67	-0.015683843
193	0xbc8e82fc	-0.017396443
194	0xbc8d6605	-0.01726056
195	0x3cb0cf2c	0.021583162
196	0x3c143650	0.009046152
197	0xbcfb9d40	-0.030714631
198	0x3ca7be78	0.020476565
199	0x3c9e7a70	0.019345492
200	0x3d31df26	0.0434257
201	0xbc2e9f05	-0.01065803
202	0x3d2b9ff8	0.041900605
203	0x3d2f8c02	0.04285813
204	0x3d3fc790	0.046821177
205	0x3ce7c596	0.028292459
206	0xbcb35cc8	-0.021894827
207	0x3bdfe84f	0.0068331133
208	0x3ca130fb	0.019676676
209	0x3c076b75	0.008265366
210	0x3c6a7788	0.014310725
211	0x3ccbed62	0.024893466
212	0xbc5919cd	-0.01325078
213	0xbd13f20f	-0.036119517
214	0xbc2c17f6	-0.01050376
215	0x3bcdf2fe	0.0062850704
216	0xbb86fd2b	-0.0041195354
217	0xbd02724b	-0.03184728
218	0xbbe9fab2	-0.007140481
219	0x3cef14cd	0.029184723
220	0x3d3d6ccb	0.04624633
221	0xbcdffe37	-0.027342899
222	0xbd0560a4	-0.032562867
223	0xbcc2be62	-0.023772422
224	0xbc8cb1c2	-0.017174605
225	0x3cf356ea	0.02970453
226	0x3c71c70e	0.014756931
227	0x3cb94282	0.022614721
228	0x3cbf14f9	0.02332543
229	0x3c86d028	0.016456679
230	0x3c3cfc1d	0.011534718
231	0x3c4eb3c8	0.012616105
232	0xbcc9adc7	-0.024618996
233	0x3c3a2cb5	0.011363198
234	0xbcb97c53	-0.02264229
235	0x3c8eb658	0.017420933
236	0xbcf7b28c	-0.030236505
237	0xbc6f27fa	-0.0145969335
238	0xbcab53ea	-0.020914037
239	0xbd0bf0ce	-0.034165196
240	0xbc2c8869	-0.01053057
241	0xbc767ee2	-0.0150449
242	0x3d39170b	0.04518799
243	0xbcaafca5	-0.020872423
244	0xba2ef58a	-0.00066741614
245	0x3c8bc601	0.017062189
246	0xbcea48bb	-0.028599134
247	0x3cc61eb8	0.02418457
248	0x3cc421ac	0.023941837
249	0x3ce6aee6	0.02815957
250	0x3d208839	0.039192412
251	0xbca963d1	-0.020677479
252	0xbbffe02d	-0.0078087063
253	0x3ce04789	0.02737786
254	0xbc392314	-0.011299867
255	0xbcd73c2c	-0.02627381

encoder.6.bias f4 [3]
0	0x3d2ada98	0.041712373
1	0x3cf7a30d	0.030229116
2	0x3d189e42	0.0372603
